<?xml version="1.0" ?>
<net name="person-detection-asl-0001" version="10">
	<layers>
		<layer id="0" name="image" type="Parameter" version="opset1">
			<data element_type="f16" shape="1,3,320,320"/>
			<output>
				<port id="0" precision="FP16">
					<dim>1</dim>
					<dim>3</dim>
					<dim>320</dim>
					<dim>320</dim>
				</port>
			</output>
		</layer>
		<layer id="1" name="image/reverse_input_channels68133/Concat68152_const2064_const" type="Const" version="opset1">
			<data element_type="f16" offset="0" shape="1,3,1,1" size="6"/>
			<output>
				<port id="1" precision="FP16">
					<dim>1</dim>
					<dim>3</dim>
					<dim>1</dim>
					<dim>1</dim>
				</port>
			</output>
		</layer>
		<layer id="2" name="image/scale_value/Fused_Mul_" type="Multiply" version="opset1">
			<input>
				<port id="0">
					<dim>1</dim>
					<dim>3</dim>
					<dim>320</dim>
					<dim>320</dim>
				</port>
				<port id="1">
					<dim>1</dim>
					<dim>3</dim>
					<dim>1</dim>
					<dim>1</dim>
				</port>
			</input>
			<output>
				<port id="2" precision="FP16">
					<dim>1</dim>
					<dim>3</dim>
					<dim>320</dim>
					<dim>320</dim>
				</port>
			</output>
		</layer>
		<layer id="3" name="image/reverse_input_channels68135/Concat68160_const2066_const" type="Const" version="opset1">
			<data element_type="f16" offset="6" shape="1,3,1,1" size="6"/>
			<output>
				<port id="1" precision="FP16">
					<dim>1</dim>
					<dim>3</dim>
					<dim>1</dim>
					<dim>1</dim>
				</port>
			</output>
		</layer>
		<layer id="4" name="image/mean_value/Fused_Add_" type="Add" version="opset1">
			<input>
				<port id="0">
					<dim>1</dim>
					<dim>3</dim>
					<dim>320</dim>
					<dim>320</dim>
				</port>
				<port id="1">
					<dim>1</dim>
					<dim>3</dim>
					<dim>1</dim>
					<dim>1</dim>
				</port>
			</input>
			<output>
				<port id="2" precision="FP16">
					<dim>1</dim>
					<dim>3</dim>
					<dim>320</dim>
					<dim>320</dim>
				</port>
			</output>
		</layer>
		<layer id="5" name="87558759_const" type="Const" version="opset1">
			<data element_type="f16" offset="12" shape="1,1,1,1" size="2"/>
			<output>
				<port id="1" precision="FP16">
					<dim>1</dim>
					<dim>1</dim>
					<dim>1</dim>
					<dim>1</dim>
				</port>
			</output>
		</layer>
		<layer id="6" name="87568760_const" type="Const" version="opset1">
			<data element_type="f16" offset="14" shape="1,1,1,1" size="2"/>
			<output>
				<port id="1" precision="FP16">
					<dim>1</dim>
					<dim>1</dim>
					<dim>1</dim>
					<dim>1</dim>
				</port>
			</output>
		</layer>
		<layer id="7" name="87578761_const" type="Const" version="opset1">
			<data element_type="f16" offset="12" shape="1,1,1,1" size="2"/>
			<output>
				<port id="1" precision="FP16">
					<dim>1</dim>
					<dim>1</dim>
					<dim>1</dim>
					<dim>1</dim>
				</port>
			</output>
		</layer>
		<layer id="8" name="87588762_const" type="Const" version="opset1">
			<data element_type="f16" offset="14" shape="1,1,1,1" size="2"/>
			<output>
				<port id="1" precision="FP16">
					<dim>1</dim>
					<dim>1</dim>
					<dim>1</dim>
					<dim>1</dim>
				</port>
			</output>
		</layer>
		<layer id="9" name="390/fq_input_0" type="FakeQuantize" version="opset1">
			<data levels="256"/>
			<input>
				<port id="0">
					<dim>1</dim>
					<dim>3</dim>
					<dim>320</dim>
					<dim>320</dim>
				</port>
				<port id="1">
					<dim>1</dim>
					<dim>1</dim>
					<dim>1</dim>
					<dim>1</dim>
				</port>
				<port id="2">
					<dim>1</dim>
					<dim>1</dim>
					<dim>1</dim>
					<dim>1</dim>
				</port>
				<port id="3">
					<dim>1</dim>
					<dim>1</dim>
					<dim>1</dim>
					<dim>1</dim>
				</port>
				<port id="4">
					<dim>1</dim>
					<dim>1</dim>
					<dim>1</dim>
					<dim>1</dim>
				</port>
			</input>
			<output>
				<port id="5" precision="FP16">
					<dim>1</dim>
					<dim>3</dim>
					<dim>320</dim>
					<dim>320</dim>
				</port>
			</output>
		</layer>
		<layer id="10" name="390/fq_weights_1/Convert_to_float/Cast_021953_const" type="Const" version="opset1">
			<data element_type="u8" offset="16" shape="24,3,3,3" size="648"/>
			<output>
				<port id="1" precision="U8">
					<dim>24</dim>
					<dim>3</dim>
					<dim>3</dim>
					<dim>3</dim>
				</port>
			</output>
		</layer>
		<layer id="11" name="390/fq_weights_1/Convert_to_float" type="Convert" version="opset1">
			<data destination_type="f16"/>
			<input>
				<port id="0">
					<dim>24</dim>
					<dim>3</dim>
					<dim>3</dim>
					<dim>3</dim>
				</port>
			</input>
			<output>
				<port id="1" precision="FP16">
					<dim>24</dim>
					<dim>3</dim>
					<dim>3</dim>
					<dim>3</dim>
				</port>
			</output>
		</layer>
		<layer id="12" name="390/fq_weights_1/Copy/out_low18813_const" type="Const" version="opset1">
			<data element_type="f16" offset="664" shape="1" size="2"/>
			<output>
				<port id="1" precision="FP16">
					<dim>1</dim>
				</port>
			</output>
		</layer>
		<layer id="13" name="390/fq_weights_1/Copy/out_high18814_const" type="Const" version="opset1">
			<data element_type="f16" offset="666" shape="1" size="2"/>
			<output>
				<port id="1" precision="FP16">
					<dim>1</dim>
				</port>
			</output>
		</layer>
		<layer id="14" name="87678771_const" type="Const" version="opset1">
			<data element_type="f16" offset="668" shape="24,1,1,1" size="48"/>
			<output>
				<port id="1" precision="FP16">
					<dim>24</dim>
					<dim>1</dim>
					<dim>1</dim>
					<dim>1</dim>
				</port>
			</output>
		</layer>
		<layer id="15" name="87688772_const" type="Const" version="opset1">
			<data element_type="f16" offset="716" shape="24,1,1,1" size="48"/>
			<output>
				<port id="1" precision="FP16">
					<dim>24</dim>
					<dim>1</dim>
					<dim>1</dim>
					<dim>1</dim>
				</port>
			</output>
		</layer>
		<layer id="16" name="390/fq_weights_1" type="FakeQuantize" version="opset1">
			<data levels="255"/>
			<input>
				<port id="0">
					<dim>24</dim>
					<dim>3</dim>
					<dim>3</dim>
					<dim>3</dim>
				</port>
				<port id="1">
					<dim>1</dim>
				</port>
				<port id="2">
					<dim>1</dim>
				</port>
				<port id="3">
					<dim>24</dim>
					<dim>1</dim>
					<dim>1</dim>
					<dim>1</dim>
				</port>
				<port id="4">
					<dim>24</dim>
					<dim>1</dim>
					<dim>1</dim>
					<dim>1</dim>
				</port>
			</input>
			<output>
				<port id="5" precision="FP16">
					<dim>24</dim>
					<dim>3</dim>
					<dim>3</dim>
					<dim>3</dim>
				</port>
			</output>
		</layer>
		<layer id="17" name="390" type="Convolution" version="opset1">
			<data dilations="1,1" output_padding="0,0" pads_begin="1,1" pads_end="1,1" strides="2,2"/>
			<input>
				<port id="0">
					<dim>1</dim>
					<dim>3</dim>
					<dim>320</dim>
					<dim>320</dim>
				</port>
				<port id="1">
					<dim>24</dim>
					<dim>3</dim>
					<dim>3</dim>
					<dim>3</dim>
				</port>
			</input>
			<output>
				<port id="2" precision="FP16">
					<dim>1</dim>
					<dim>24</dim>
					<dim>160</dim>
					<dim>160</dim>
				</port>
			</output>
		</layer>
		<layer id="18" name="data_add_334853349034844/EltwiseUnsqueeze35406_const2070_const" type="Const" version="opset1">
			<data element_type="f16" offset="764" shape="1,24,1,1" size="48"/>
			<output>
				<port id="1" precision="FP16">
					<dim>1</dim>
					<dim>24</dim>
					<dim>1</dim>
					<dim>1</dim>
				</port>
			</output>
		</layer>
		<layer id="19" name="391/variance/Fused_Add_" type="Add" version="opset1">
			<input>
				<port id="0">
					<dim>1</dim>
					<dim>24</dim>
					<dim>160</dim>
					<dim>160</dim>
				</port>
				<port id="1">
					<dim>1</dim>
					<dim>24</dim>
					<dim>1</dim>
					<dim>1</dim>
				</port>
			</input>
			<output>
				<port id="2" precision="FP16">
					<dim>1</dim>
					<dim>24</dim>
					<dim>160</dim>
					<dim>160</dim>
				</port>
			</output>
		</layer>
		<layer id="20" name="392" type="ReLU" version="opset1">
			<input>
				<port id="0">
					<dim>1</dim>
					<dim>24</dim>
					<dim>160</dim>
					<dim>160</dim>
				</port>
			</input>
			<output>
				<port id="1" precision="FP16">
					<dim>1</dim>
					<dim>24</dim>
					<dim>160</dim>
					<dim>160</dim>
				</port>
			</output>
		</layer>
		<layer id="21" name="1211712121_const" type="Const" version="opset1">
			<data element_type="f16" offset="812" shape="1,1,1,1" size="2"/>
			<output>
				<port id="1" precision="FP16">
					<dim>1</dim>
					<dim>1</dim>
					<dim>1</dim>
					<dim>1</dim>
				</port>
			</output>
		</layer>
		<layer id="22" name="1211812122_const" type="Const" version="opset1">
			<data element_type="f16" offset="814" shape="1,1,1,1" size="2"/>
			<output>
				<port id="1" precision="FP16">
					<dim>1</dim>
					<dim>1</dim>
					<dim>1</dim>
					<dim>1</dim>
				</port>
			</output>
		</layer>
		<layer id="23" name="1211912123_const" type="Const" version="opset1">
			<data element_type="f16" offset="812" shape="1,1,1,1" size="2"/>
			<output>
				<port id="1" precision="FP16">
					<dim>1</dim>
					<dim>1</dim>
					<dim>1</dim>
					<dim>1</dim>
				</port>
			</output>
		</layer>
		<layer id="24" name="1212012124_const" type="Const" version="opset1">
			<data element_type="f16" offset="814" shape="1,1,1,1" size="2"/>
			<output>
				<port id="1" precision="FP16">
					<dim>1</dim>
					<dim>1</dim>
					<dim>1</dim>
					<dim>1</dim>
				</port>
			</output>
		</layer>
		<layer id="25" name="393/fq_input_0" type="FakeQuantize" version="opset1">
			<data levels="256"/>
			<input>
				<port id="0">
					<dim>1</dim>
					<dim>24</dim>
					<dim>160</dim>
					<dim>160</dim>
				</port>
				<port id="1">
					<dim>1</dim>
					<dim>1</dim>
					<dim>1</dim>
					<dim>1</dim>
				</port>
				<port id="2">
					<dim>1</dim>
					<dim>1</dim>
					<dim>1</dim>
					<dim>1</dim>
				</port>
				<port id="3">
					<dim>1</dim>
					<dim>1</dim>
					<dim>1</dim>
					<dim>1</dim>
				</port>
				<port id="4">
					<dim>1</dim>
					<dim>1</dim>
					<dim>1</dim>
					<dim>1</dim>
				</port>
			</input>
			<output>
				<port id="5" precision="FP16">
					<dim>1</dim>
					<dim>24</dim>
					<dim>160</dim>
					<dim>160</dim>
				</port>
			</output>
		</layer>
		<layer id="26" name="393" type="MaxPool" version="opset1">
			<data kernel="3,3" pads_begin="0,0" pads_end="0,0" rounding_type="ceil" strides="2,2"/>
			<input>
				<port id="0">
					<dim>1</dim>
					<dim>24</dim>
					<dim>160</dim>
					<dim>160</dim>
				</port>
			</input>
			<output>
				<port id="1" precision="FP16">
					<dim>1</dim>
					<dim>24</dim>
					<dim>80</dim>
					<dim>80</dim>
				</port>
			</output>
		</layer>
		<layer id="27" name="394/fq_weights_1/Convert_to_float/Cast_021631_const" type="Const" version="opset1">
			<data element_type="u8" offset="816" shape="24,1,3,3" size="216"/>
			<output>
				<port id="1" precision="U8">
					<dim>24</dim>
					<dim>1</dim>
					<dim>3</dim>
					<dim>3</dim>
				</port>
			</output>
		</layer>
		<layer id="28" name="394/fq_weights_1/Convert_to_float" type="Convert" version="opset1">
			<data destination_type="f16"/>
			<input>
				<port id="0">
					<dim>24</dim>
					<dim>1</dim>
					<dim>3</dim>
					<dim>3</dim>
				</port>
			</input>
			<output>
				<port id="1" precision="FP16">
					<dim>24</dim>
					<dim>1</dim>
					<dim>3</dim>
					<dim>3</dim>
				</port>
			</output>
		</layer>
		<layer id="29" name="394/fq_weights_1/Copy/out_low18837_const" type="Const" version="opset1">
			<data element_type="f16" offset="1032" shape="1" size="2"/>
			<output>
				<port id="1" precision="FP16">
					<dim>1</dim>
				</port>
			</output>
		</layer>
		<layer id="30" name="394/fq_weights_1/Copy/out_high18838_const" type="Const" version="opset1">
			<data element_type="f16" offset="666" shape="1" size="2"/>
			<output>
				<port id="1" precision="FP16">
					<dim>1</dim>
				</port>
			</output>
		</layer>
		<layer id="31" name="98279831_const" type="Const" version="opset1">
			<data element_type="f16" offset="1034" shape="24,1,1,1" size="48"/>
			<output>
				<port id="1" precision="FP16">
					<dim>24</dim>
					<dim>1</dim>
					<dim>1</dim>
					<dim>1</dim>
				</port>
			</output>
		</layer>
		<layer id="32" name="98289832_const" type="Const" version="opset1">
			<data element_type="f16" offset="1082" shape="24,1,1,1" size="48"/>
			<output>
				<port id="1" precision="FP16">
					<dim>24</dim>
					<dim>1</dim>
					<dim>1</dim>
					<dim>1</dim>
				</port>
			</output>
		</layer>
		<layer id="33" name="394/fq_weights_1" type="FakeQuantize" version="opset1">
			<data levels="255"/>
			<input>
				<port id="0">
					<dim>24</dim>
					<dim>1</dim>
					<dim>3</dim>
					<dim>3</dim>
				</port>
				<port id="1">
					<dim>1</dim>
				</port>
				<port id="2">
					<dim>1</dim>
				</port>
				<port id="3">
					<dim>24</dim>
					<dim>1</dim>
					<dim>1</dim>
					<dim>1</dim>
				</port>
				<port id="4">
					<dim>24</dim>
					<dim>1</dim>
					<dim>1</dim>
					<dim>1</dim>
				</port>
			</input>
			<output>
				<port id="5" precision="FP16">
					<dim>24</dim>
					<dim>1</dim>
					<dim>3</dim>
					<dim>3</dim>
				</port>
			</output>
		</layer>
		<layer id="34" name="24366/value24368_const" type="Const" version="opset1">
			<data element_type="i64" offset="1130" shape="5" size="40"/>
			<output>
				<port id="1" precision="I64">
					<dim>5</dim>
				</port>
			</output>
		</layer>
		<layer id="35" name="24366" type="Reshape" version="opset1">
			<data special_zero="True"/>
			<input>
				<port id="0">
					<dim>24</dim>
					<dim>1</dim>
					<dim>3</dim>
					<dim>3</dim>
				</port>
				<port id="1">
					<dim>5</dim>
				</port>
			</input>
			<output>
				<port id="2" precision="FP16">
					<dim>24</dim>
					<dim>1</dim>
					<dim>1</dim>
					<dim>3</dim>
					<dim>3</dim>
				</port>
			</output>
		</layer>
		<layer id="36" name="394" type="GroupConvolution" version="opset1">
			<data dilations="1,1" output_padding="0,0" pads_begin="1,1" pads_end="1,1" strides="2,2"/>
			<input>
				<port id="0">
					<dim>1</dim>
					<dim>24</dim>
					<dim>80</dim>
					<dim>80</dim>
				</port>
				<port id="1">
					<dim>24</dim>
					<dim>1</dim>
					<dim>1</dim>
					<dim>3</dim>
					<dim>3</dim>
				</port>
			</input>
			<output>
				<port id="2" precision="FP16">
					<dim>1</dim>
					<dim>24</dim>
					<dim>40</dim>
					<dim>40</dim>
				</port>
			</output>
		</layer>
		<layer id="37" name="data_add_335173352234852/EltwiseUnsqueeze35438_const2076_const" type="Const" version="opset1">
			<data element_type="f16" offset="1170" shape="1,24,1,1" size="48"/>
			<output>
				<port id="1" precision="FP16">
					<dim>1</dim>
					<dim>24</dim>
					<dim>1</dim>
					<dim>1</dim>
				</port>
			</output>
		</layer>
		<layer id="38" name="395/variance/Fused_Add_" type="Add" version="opset1">
			<input>
				<port id="0">
					<dim>1</dim>
					<dim>24</dim>
					<dim>40</dim>
					<dim>40</dim>
				</port>
				<port id="1">
					<dim>1</dim>
					<dim>24</dim>
					<dim>1</dim>
					<dim>1</dim>
				</port>
			</input>
			<output>
				<port id="2" precision="FP16">
					<dim>1</dim>
					<dim>24</dim>
					<dim>40</dim>
					<dim>40</dim>
				</port>
			</output>
		</layer>
		<layer id="39" name="85458549_const" type="Const" version="opset1">
			<data element_type="f16" offset="1218" shape="1,1,1,1" size="2"/>
			<output>
				<port id="1" precision="FP16">
					<dim>1</dim>
					<dim>1</dim>
					<dim>1</dim>
					<dim>1</dim>
				</port>
			</output>
		</layer>
		<layer id="40" name="85468550_const" type="Const" version="opset1">
			<data element_type="f16" offset="1220" shape="1,1,1,1" size="2"/>
			<output>
				<port id="1" precision="FP16">
					<dim>1</dim>
					<dim>1</dim>
					<dim>1</dim>
					<dim>1</dim>
				</port>
			</output>
		</layer>
		<layer id="41" name="85478551_const" type="Const" version="opset1">
			<data element_type="f16" offset="1218" shape="1,1,1,1" size="2"/>
			<output>
				<port id="1" precision="FP16">
					<dim>1</dim>
					<dim>1</dim>
					<dim>1</dim>
					<dim>1</dim>
				</port>
			</output>
		</layer>
		<layer id="42" name="85488552_const" type="Const" version="opset1">
			<data element_type="f16" offset="1220" shape="1,1,1,1" size="2"/>
			<output>
				<port id="1" precision="FP16">
					<dim>1</dim>
					<dim>1</dim>
					<dim>1</dim>
					<dim>1</dim>
				</port>
			</output>
		</layer>
		<layer id="43" name="396/fq_input_0" type="FakeQuantize" version="opset1">
			<data levels="256"/>
			<input>
				<port id="0">
					<dim>1</dim>
					<dim>24</dim>
					<dim>40</dim>
					<dim>40</dim>
				</port>
				<port id="1">
					<dim>1</dim>
					<dim>1</dim>
					<dim>1</dim>
					<dim>1</dim>
				</port>
				<port id="2">
					<dim>1</dim>
					<dim>1</dim>
					<dim>1</dim>
					<dim>1</dim>
				</port>
				<port id="3">
					<dim>1</dim>
					<dim>1</dim>
					<dim>1</dim>
					<dim>1</dim>
				</port>
				<port id="4">
					<dim>1</dim>
					<dim>1</dim>
					<dim>1</dim>
					<dim>1</dim>
				</port>
			</input>
			<output>
				<port id="5" precision="FP16">
					<dim>1</dim>
					<dim>24</dim>
					<dim>40</dim>
					<dim>40</dim>
				</port>
			</output>
		</layer>
		<layer id="44" name="396/fq_weights_1/Convert_to_float/Cast_022065_const" type="Const" version="opset1">
			<data element_type="u8" offset="1222" shape="58,24,1,1" size="1392"/>
			<output>
				<port id="1" precision="U8">
					<dim>58</dim>
					<dim>24</dim>
					<dim>1</dim>
					<dim>1</dim>
				</port>
			</output>
		</layer>
		<layer id="45" name="396/fq_weights_1/Convert_to_float" type="Convert" version="opset1">
			<data destination_type="f16"/>
			<input>
				<port id="0">
					<dim>58</dim>
					<dim>24</dim>
					<dim>1</dim>
					<dim>1</dim>
				</port>
			</input>
			<output>
				<port id="1" precision="FP16">
					<dim>58</dim>
					<dim>24</dim>
					<dim>1</dim>
					<dim>1</dim>
				</port>
			</output>
		</layer>
		<layer id="46" name="396/fq_weights_1/Copy/out_low18885_const" type="Const" version="opset1">
			<data element_type="f16" offset="1032" shape="1" size="2"/>
			<output>
				<port id="1" precision="FP16">
					<dim>1</dim>
				</port>
			</output>
		</layer>
		<layer id="47" name="396/fq_weights_1/Copy/out_high18886_const" type="Const" version="opset1">
			<data element_type="f16" offset="666" shape="1" size="2"/>
			<output>
				<port id="1" precision="FP16">
					<dim>1</dim>
				</port>
			</output>
		</layer>
		<layer id="48" name="85578561_const" type="Const" version="opset1">
			<data element_type="f16" offset="2614" shape="58,1,1,1" size="116"/>
			<output>
				<port id="1" precision="FP16">
					<dim>58</dim>
					<dim>1</dim>
					<dim>1</dim>
					<dim>1</dim>
				</port>
			</output>
		</layer>
		<layer id="49" name="85588562_const" type="Const" version="opset1">
			<data element_type="f16" offset="2730" shape="58,1,1,1" size="116"/>
			<output>
				<port id="1" precision="FP16">
					<dim>58</dim>
					<dim>1</dim>
					<dim>1</dim>
					<dim>1</dim>
				</port>
			</output>
		</layer>
		<layer id="50" name="396/fq_weights_1" type="FakeQuantize" version="opset1">
			<data levels="255"/>
			<input>
				<port id="0">
					<dim>58</dim>
					<dim>24</dim>
					<dim>1</dim>
					<dim>1</dim>
				</port>
				<port id="1">
					<dim>1</dim>
				</port>
				<port id="2">
					<dim>1</dim>
				</port>
				<port id="3">
					<dim>58</dim>
					<dim>1</dim>
					<dim>1</dim>
					<dim>1</dim>
				</port>
				<port id="4">
					<dim>58</dim>
					<dim>1</dim>
					<dim>1</dim>
					<dim>1</dim>
				</port>
			</input>
			<output>
				<port id="5" precision="FP16">
					<dim>58</dim>
					<dim>24</dim>
					<dim>1</dim>
					<dim>1</dim>
				</port>
			</output>
		</layer>
		<layer id="51" name="396" type="Convolution" version="opset1">
			<data dilations="1,1" output_padding="0,0" pads_begin="0,0" pads_end="0,0" strides="1,1"/>
			<input>
				<port id="0">
					<dim>1</dim>
					<dim>24</dim>
					<dim>40</dim>
					<dim>40</dim>
				</port>
				<port id="1">
					<dim>58</dim>
					<dim>24</dim>
					<dim>1</dim>
					<dim>1</dim>
				</port>
			</input>
			<output>
				<port id="2" precision="FP16">
					<dim>1</dim>
					<dim>58</dim>
					<dim>40</dim>
					<dim>40</dim>
				</port>
			</output>
		</layer>
		<layer id="52" name="data_add_335253353034854/EltwiseUnsqueeze35446_const2080_const" type="Const" version="opset1">
			<data element_type="f16" offset="2846" shape="1,58,1,1" size="116"/>
			<output>
				<port id="1" precision="FP16">
					<dim>1</dim>
					<dim>58</dim>
					<dim>1</dim>
					<dim>1</dim>
				</port>
			</output>
		</layer>
		<layer id="53" name="397/variance/Fused_Add_" type="Add" version="opset1">
			<input>
				<port id="0">
					<dim>1</dim>
					<dim>58</dim>
					<dim>40</dim>
					<dim>40</dim>
				</port>
				<port id="1">
					<dim>1</dim>
					<dim>58</dim>
					<dim>1</dim>
					<dim>1</dim>
				</port>
			</input>
			<output>
				<port id="2" precision="FP16">
					<dim>1</dim>
					<dim>58</dim>
					<dim>40</dim>
					<dim>40</dim>
				</port>
			</output>
		</layer>
		<layer id="54" name="398" type="ReLU" version="opset1">
			<input>
				<port id="0">
					<dim>1</dim>
					<dim>58</dim>
					<dim>40</dim>
					<dim>40</dim>
				</port>
			</input>
			<output>
				<port id="1" precision="FP16">
					<dim>1</dim>
					<dim>58</dim>
					<dim>40</dim>
					<dim>40</dim>
				</port>
			</output>
		</layer>
		<layer id="55" name="399/fq_weights_1/Convert_to_float/Cast_022139_const" type="Const" version="opset1">
			<data element_type="u8" offset="2962" shape="58,24,1,1" size="1392"/>
			<output>
				<port id="1" precision="U8">
					<dim>58</dim>
					<dim>24</dim>
					<dim>1</dim>
					<dim>1</dim>
				</port>
			</output>
		</layer>
		<layer id="56" name="399/fq_weights_1/Convert_to_float" type="Convert" version="opset1">
			<data destination_type="f16"/>
			<input>
				<port id="0">
					<dim>58</dim>
					<dim>24</dim>
					<dim>1</dim>
					<dim>1</dim>
				</port>
			</input>
			<output>
				<port id="1" precision="FP16">
					<dim>58</dim>
					<dim>24</dim>
					<dim>1</dim>
					<dim>1</dim>
				</port>
			</output>
		</layer>
		<layer id="57" name="399/fq_weights_1/Copy/out_low19253_const" type="Const" version="opset1">
			<data element_type="f16" offset="1032" shape="1" size="2"/>
			<output>
				<port id="1" precision="FP16">
					<dim>1</dim>
				</port>
			</output>
		</layer>
		<layer id="58" name="399/fq_weights_1/Copy/out_high19254_const" type="Const" version="opset1">
			<data element_type="f16" offset="666" shape="1" size="2"/>
			<output>
				<port id="1" precision="FP16">
					<dim>1</dim>
				</port>
			</output>
		</layer>
		<layer id="59" name="74077411_const" type="Const" version="opset1">
			<data element_type="f16" offset="4354" shape="58,1,1,1" size="116"/>
			<output>
				<port id="1" precision="FP16">
					<dim>58</dim>
					<dim>1</dim>
					<dim>1</dim>
					<dim>1</dim>
				</port>
			</output>
		</layer>
		<layer id="60" name="74087412_const" type="Const" version="opset1">
			<data element_type="f16" offset="4470" shape="58,1,1,1" size="116"/>
			<output>
				<port id="1" precision="FP16">
					<dim>58</dim>
					<dim>1</dim>
					<dim>1</dim>
					<dim>1</dim>
				</port>
			</output>
		</layer>
		<layer id="61" name="399/fq_weights_1" type="FakeQuantize" version="opset1">
			<data levels="255"/>
			<input>
				<port id="0">
					<dim>58</dim>
					<dim>24</dim>
					<dim>1</dim>
					<dim>1</dim>
				</port>
				<port id="1">
					<dim>1</dim>
				</port>
				<port id="2">
					<dim>1</dim>
				</port>
				<port id="3">
					<dim>58</dim>
					<dim>1</dim>
					<dim>1</dim>
					<dim>1</dim>
				</port>
				<port id="4">
					<dim>58</dim>
					<dim>1</dim>
					<dim>1</dim>
					<dim>1</dim>
				</port>
			</input>
			<output>
				<port id="5" precision="FP16">
					<dim>58</dim>
					<dim>24</dim>
					<dim>1</dim>
					<dim>1</dim>
				</port>
			</output>
		</layer>
		<layer id="62" name="399" type="Convolution" version="opset1">
			<data dilations="1,1" output_padding="0,0" pads_begin="0,0" pads_end="0,0" strides="1,1"/>
			<input>
				<port id="0">
					<dim>1</dim>
					<dim>24</dim>
					<dim>80</dim>
					<dim>80</dim>
				</port>
				<port id="1">
					<dim>58</dim>
					<dim>24</dim>
					<dim>1</dim>
					<dim>1</dim>
				</port>
			</input>
			<output>
				<port id="2" precision="FP16">
					<dim>1</dim>
					<dim>58</dim>
					<dim>80</dim>
					<dim>80</dim>
				</port>
			</output>
		</layer>
		<layer id="63" name="data_add_334933349834846/EltwiseUnsqueeze35414_const2085_const" type="Const" version="opset1">
			<data element_type="f16" offset="4586" shape="1,58,1,1" size="116"/>
			<output>
				<port id="1" precision="FP16">
					<dim>1</dim>
					<dim>58</dim>
					<dim>1</dim>
					<dim>1</dim>
				</port>
			</output>
		</layer>
		<layer id="64" name="400/variance/Fused_Add_" type="Add" version="opset1">
			<input>
				<port id="0">
					<dim>1</dim>
					<dim>58</dim>
					<dim>80</dim>
					<dim>80</dim>
				</port>
				<port id="1">
					<dim>1</dim>
					<dim>58</dim>
					<dim>1</dim>
					<dim>1</dim>
				</port>
			</input>
			<output>
				<port id="2" precision="FP16">
					<dim>1</dim>
					<dim>58</dim>
					<dim>80</dim>
					<dim>80</dim>
				</port>
			</output>
		</layer>
		<layer id="65" name="401" type="ReLU" version="opset1">
			<input>
				<port id="0">
					<dim>1</dim>
					<dim>58</dim>
					<dim>80</dim>
					<dim>80</dim>
				</port>
			</input>
			<output>
				<port id="1" precision="FP16">
					<dim>1</dim>
					<dim>58</dim>
					<dim>80</dim>
					<dim>80</dim>
				</port>
			</output>
		</layer>
		<layer id="66" name="78257829_const" type="Const" version="opset1">
			<data element_type="f16" offset="4702" shape="1,58,1,1" size="116"/>
			<output>
				<port id="1" precision="FP16">
					<dim>1</dim>
					<dim>58</dim>
					<dim>1</dim>
					<dim>1</dim>
				</port>
			</output>
		</layer>
		<layer id="67" name="78267830_const" type="Const" version="opset1">
			<data element_type="f16" offset="4818" shape="1,58,1,1" size="116"/>
			<output>
				<port id="1" precision="FP16">
					<dim>1</dim>
					<dim>58</dim>
					<dim>1</dim>
					<dim>1</dim>
				</port>
			</output>
		</layer>
		<layer id="68" name="78277831_const" type="Const" version="opset1">
			<data element_type="f16" offset="4702" shape="1,58,1,1" size="116"/>
			<output>
				<port id="1" precision="FP16">
					<dim>1</dim>
					<dim>58</dim>
					<dim>1</dim>
					<dim>1</dim>
				</port>
			</output>
		</layer>
		<layer id="69" name="78287832_const" type="Const" version="opset1">
			<data element_type="f16" offset="4818" shape="1,58,1,1" size="116"/>
			<output>
				<port id="1" precision="FP16">
					<dim>1</dim>
					<dim>58</dim>
					<dim>1</dim>
					<dim>1</dim>
				</port>
			</output>
		</layer>
		<layer id="70" name="402/fq_input_0" type="FakeQuantize" version="opset1">
			<data levels="256"/>
			<input>
				<port id="0">
					<dim>1</dim>
					<dim>58</dim>
					<dim>80</dim>
					<dim>80</dim>
				</port>
				<port id="1">
					<dim>1</dim>
					<dim>58</dim>
					<dim>1</dim>
					<dim>1</dim>
				</port>
				<port id="2">
					<dim>1</dim>
					<dim>58</dim>
					<dim>1</dim>
					<dim>1</dim>
				</port>
				<port id="3">
					<dim>1</dim>
					<dim>58</dim>
					<dim>1</dim>
					<dim>1</dim>
				</port>
				<port id="4">
					<dim>1</dim>
					<dim>58</dim>
					<dim>1</dim>
					<dim>1</dim>
				</port>
			</input>
			<output>
				<port id="5" precision="FP16">
					<dim>1</dim>
					<dim>58</dim>
					<dim>80</dim>
					<dim>80</dim>
				</port>
			</output>
		</layer>
		<layer id="71" name="402/fq_weights_1/Convert_to_float/Cast_021503_const" type="Const" version="opset1">
			<data element_type="u8" offset="4934" shape="58,1,3,3" size="522"/>
			<output>
				<port id="1" precision="U8">
					<dim>58</dim>
					<dim>1</dim>
					<dim>3</dim>
					<dim>3</dim>
				</port>
			</output>
		</layer>
		<layer id="72" name="402/fq_weights_1/Convert_to_float" type="Convert" version="opset1">
			<data destination_type="f16"/>
			<input>
				<port id="0">
					<dim>58</dim>
					<dim>1</dim>
					<dim>3</dim>
					<dim>3</dim>
				</port>
			</input>
			<output>
				<port id="1" precision="FP16">
					<dim>58</dim>
					<dim>1</dim>
					<dim>3</dim>
					<dim>3</dim>
				</port>
			</output>
		</layer>
		<layer id="73" name="402/fq_weights_1/Copy/out_low19053_const" type="Const" version="opset1">
			<data element_type="f16" offset="1032" shape="1" size="2"/>
			<output>
				<port id="1" precision="FP16">
					<dim>1</dim>
				</port>
			</output>
		</layer>
		<layer id="74" name="402/fq_weights_1/Copy/out_high19054_const" type="Const" version="opset1">
			<data element_type="f16" offset="666" shape="1" size="2"/>
			<output>
				<port id="1" precision="FP16">
					<dim>1</dim>
				</port>
			</output>
		</layer>
		<layer id="75" name="78377841_const" type="Const" version="opset1">
			<data element_type="f16" offset="5456" shape="58,1,1,1" size="116"/>
			<output>
				<port id="1" precision="FP16">
					<dim>58</dim>
					<dim>1</dim>
					<dim>1</dim>
					<dim>1</dim>
				</port>
			</output>
		</layer>
		<layer id="76" name="78387842_const" type="Const" version="opset1">
			<data element_type="f16" offset="5572" shape="58,1,1,1" size="116"/>
			<output>
				<port id="1" precision="FP16">
					<dim>58</dim>
					<dim>1</dim>
					<dim>1</dim>
					<dim>1</dim>
				</port>
			</output>
		</layer>
		<layer id="77" name="402/fq_weights_1" type="FakeQuantize" version="opset1">
			<data levels="255"/>
			<input>
				<port id="0">
					<dim>58</dim>
					<dim>1</dim>
					<dim>3</dim>
					<dim>3</dim>
				</port>
				<port id="1">
					<dim>1</dim>
				</port>
				<port id="2">
					<dim>1</dim>
				</port>
				<port id="3">
					<dim>58</dim>
					<dim>1</dim>
					<dim>1</dim>
					<dim>1</dim>
				</port>
				<port id="4">
					<dim>58</dim>
					<dim>1</dim>
					<dim>1</dim>
					<dim>1</dim>
				</port>
			</input>
			<output>
				<port id="5" precision="FP16">
					<dim>58</dim>
					<dim>1</dim>
					<dim>3</dim>
					<dim>3</dim>
				</port>
			</output>
		</layer>
		<layer id="78" name="24370/value24372_const" type="Const" version="opset1">
			<data element_type="i64" offset="5688" shape="5" size="40"/>
			<output>
				<port id="1" precision="I64">
					<dim>5</dim>
				</port>
			</output>
		</layer>
		<layer id="79" name="24370" type="Reshape" version="opset1">
			<data special_zero="True"/>
			<input>
				<port id="0">
					<dim>58</dim>
					<dim>1</dim>
					<dim>3</dim>
					<dim>3</dim>
				</port>
				<port id="1">
					<dim>5</dim>
				</port>
			</input>
			<output>
				<port id="2" precision="FP16">
					<dim>58</dim>
					<dim>1</dim>
					<dim>1</dim>
					<dim>3</dim>
					<dim>3</dim>
				</port>
			</output>
		</layer>
		<layer id="80" name="402" type="GroupConvolution" version="opset1">
			<data dilations="1,1" output_padding="0,0" pads_begin="1,1" pads_end="1,1" strides="2,2"/>
			<input>
				<port id="0">
					<dim>1</dim>
					<dim>58</dim>
					<dim>80</dim>
					<dim>80</dim>
				</port>
				<port id="1">
					<dim>58</dim>
					<dim>1</dim>
					<dim>1</dim>
					<dim>3</dim>
					<dim>3</dim>
				</port>
			</input>
			<output>
				<port id="2" precision="FP16">
					<dim>1</dim>
					<dim>58</dim>
					<dim>40</dim>
					<dim>40</dim>
				</port>
			</output>
		</layer>
		<layer id="81" name="data_add_335013350634848/EltwiseUnsqueeze35422_const2090_const" type="Const" version="opset1">
			<data element_type="f16" offset="5728" shape="1,58,1,1" size="116"/>
			<output>
				<port id="1" precision="FP16">
					<dim>1</dim>
					<dim>58</dim>
					<dim>1</dim>
					<dim>1</dim>
				</port>
			</output>
		</layer>
		<layer id="82" name="403/variance/Fused_Add_" type="Add" version="opset1">
			<input>
				<port id="0">
					<dim>1</dim>
					<dim>58</dim>
					<dim>40</dim>
					<dim>40</dim>
				</port>
				<port id="1">
					<dim>1</dim>
					<dim>58</dim>
					<dim>1</dim>
					<dim>1</dim>
				</port>
			</input>
			<output>
				<port id="2" precision="FP16">
					<dim>1</dim>
					<dim>58</dim>
					<dim>40</dim>
					<dim>40</dim>
				</port>
			</output>
		</layer>
		<layer id="83" name="75757579_const" type="Const" version="opset1">
			<data element_type="f16" offset="5844" shape="1,1,1,1" size="2"/>
			<output>
				<port id="1" precision="FP16">
					<dim>1</dim>
					<dim>1</dim>
					<dim>1</dim>
					<dim>1</dim>
				</port>
			</output>
		</layer>
		<layer id="84" name="75767580_const" type="Const" version="opset1">
			<data element_type="f16" offset="5846" shape="1,1,1,1" size="2"/>
			<output>
				<port id="1" precision="FP16">
					<dim>1</dim>
					<dim>1</dim>
					<dim>1</dim>
					<dim>1</dim>
				</port>
			</output>
		</layer>
		<layer id="85" name="75777581_const" type="Const" version="opset1">
			<data element_type="f16" offset="5844" shape="1,1,1,1" size="2"/>
			<output>
				<port id="1" precision="FP16">
					<dim>1</dim>
					<dim>1</dim>
					<dim>1</dim>
					<dim>1</dim>
				</port>
			</output>
		</layer>
		<layer id="86" name="75787582_const" type="Const" version="opset1">
			<data element_type="f16" offset="5846" shape="1,1,1,1" size="2"/>
			<output>
				<port id="1" precision="FP16">
					<dim>1</dim>
					<dim>1</dim>
					<dim>1</dim>
					<dim>1</dim>
				</port>
			</output>
		</layer>
		<layer id="87" name="404/fq_input_0" type="FakeQuantize" version="opset1">
			<data levels="256"/>
			<input>
				<port id="0">
					<dim>1</dim>
					<dim>58</dim>
					<dim>40</dim>
					<dim>40</dim>
				</port>
				<port id="1">
					<dim>1</dim>
					<dim>1</dim>
					<dim>1</dim>
					<dim>1</dim>
				</port>
				<port id="2">
					<dim>1</dim>
					<dim>1</dim>
					<dim>1</dim>
					<dim>1</dim>
				</port>
				<port id="3">
					<dim>1</dim>
					<dim>1</dim>
					<dim>1</dim>
					<dim>1</dim>
				</port>
				<port id="4">
					<dim>1</dim>
					<dim>1</dim>
					<dim>1</dim>
					<dim>1</dim>
				</port>
			</input>
			<output>
				<port id="5" precision="FP16">
					<dim>1</dim>
					<dim>58</dim>
					<dim>40</dim>
					<dim>40</dim>
				</port>
			</output>
		</layer>
		<layer id="88" name="404/fq_weights_1/Convert_to_float/Cast_021543_const" type="Const" version="opset1">
			<data element_type="u8" offset="5848" shape="58,58,1,1" size="3364"/>
			<output>
				<port id="1" precision="U8">
					<dim>58</dim>
					<dim>58</dim>
					<dim>1</dim>
					<dim>1</dim>
				</port>
			</output>
		</layer>
		<layer id="89" name="404/fq_weights_1/Convert_to_float" type="Convert" version="opset1">
			<data destination_type="f16"/>
			<input>
				<port id="0">
					<dim>58</dim>
					<dim>58</dim>
					<dim>1</dim>
					<dim>1</dim>
				</port>
			</input>
			<output>
				<port id="1" precision="FP16">
					<dim>58</dim>
					<dim>58</dim>
					<dim>1</dim>
					<dim>1</dim>
				</port>
			</output>
		</layer>
		<layer id="90" name="404/fq_weights_1/Copy/out_low19269_const" type="Const" version="opset1">
			<data element_type="f16" offset="1032" shape="1" size="2"/>
			<output>
				<port id="1" precision="FP16">
					<dim>1</dim>
				</port>
			</output>
		</layer>
		<layer id="91" name="404/fq_weights_1/Copy/out_high19270_const" type="Const" version="opset1">
			<data element_type="f16" offset="666" shape="1" size="2"/>
			<output>
				<port id="1" precision="FP16">
					<dim>1</dim>
				</port>
			</output>
		</layer>
		<layer id="92" name="75877591_const" type="Const" version="opset1">
			<data element_type="f16" offset="9212" shape="58,1,1,1" size="116"/>
			<output>
				<port id="1" precision="FP16">
					<dim>58</dim>
					<dim>1</dim>
					<dim>1</dim>
					<dim>1</dim>
				</port>
			</output>
		</layer>
		<layer id="93" name="75887592_const" type="Const" version="opset1">
			<data element_type="f16" offset="9328" shape="58,1,1,1" size="116"/>
			<output>
				<port id="1" precision="FP16">
					<dim>58</dim>
					<dim>1</dim>
					<dim>1</dim>
					<dim>1</dim>
				</port>
			</output>
		</layer>
		<layer id="94" name="404/fq_weights_1" type="FakeQuantize" version="opset1">
			<data levels="255"/>
			<input>
				<port id="0">
					<dim>58</dim>
					<dim>58</dim>
					<dim>1</dim>
					<dim>1</dim>
				</port>
				<port id="1">
					<dim>1</dim>
				</port>
				<port id="2">
					<dim>1</dim>
				</port>
				<port id="3">
					<dim>58</dim>
					<dim>1</dim>
					<dim>1</dim>
					<dim>1</dim>
				</port>
				<port id="4">
					<dim>58</dim>
					<dim>1</dim>
					<dim>1</dim>
					<dim>1</dim>
				</port>
			</input>
			<output>
				<port id="5" precision="FP16">
					<dim>58</dim>
					<dim>58</dim>
					<dim>1</dim>
					<dim>1</dim>
				</port>
			</output>
		</layer>
		<layer id="95" name="404" type="Convolution" version="opset1">
			<data dilations="1,1" output_padding="0,0" pads_begin="0,0" pads_end="0,0" strides="1,1"/>
			<input>
				<port id="0">
					<dim>1</dim>
					<dim>58</dim>
					<dim>40</dim>
					<dim>40</dim>
				</port>
				<port id="1">
					<dim>58</dim>
					<dim>58</dim>
					<dim>1</dim>
					<dim>1</dim>
				</port>
			</input>
			<output>
				<port id="2" precision="FP16">
					<dim>1</dim>
					<dim>58</dim>
					<dim>40</dim>
					<dim>40</dim>
				</port>
			</output>
		</layer>
		<layer id="96" name="data_add_335093351434850/EltwiseUnsqueeze35430_const2094_const" type="Const" version="opset1">
			<data element_type="f16" offset="9444" shape="1,58,1,1" size="116"/>
			<output>
				<port id="1" precision="FP16">
					<dim>1</dim>
					<dim>58</dim>
					<dim>1</dim>
					<dim>1</dim>
				</port>
			</output>
		</layer>
		<layer id="97" name="405/variance/Fused_Add_" type="Add" version="opset1">
			<input>
				<port id="0">
					<dim>1</dim>
					<dim>58</dim>
					<dim>40</dim>
					<dim>40</dim>
				</port>
				<port id="1">
					<dim>1</dim>
					<dim>58</dim>
					<dim>1</dim>
					<dim>1</dim>
				</port>
			</input>
			<output>
				<port id="2" precision="FP16">
					<dim>1</dim>
					<dim>58</dim>
					<dim>40</dim>
					<dim>40</dim>
				</port>
			</output>
		</layer>
		<layer id="98" name="406" type="ReLU" version="opset1">
			<input>
				<port id="0">
					<dim>1</dim>
					<dim>58</dim>
					<dim>40</dim>
					<dim>40</dim>
				</port>
			</input>
			<output>
				<port id="1" precision="FP16">
					<dim>1</dim>
					<dim>58</dim>
					<dim>40</dim>
					<dim>40</dim>
				</port>
			</output>
		</layer>
		<layer id="99" name="407" type="Concat" version="opset1">
			<data axis="1"/>
			<input>
				<port id="0">
					<dim>1</dim>
					<dim>58</dim>
					<dim>40</dim>
					<dim>40</dim>
				</port>
				<port id="1">
					<dim>1</dim>
					<dim>58</dim>
					<dim>40</dim>
					<dim>40</dim>
				</port>
			</input>
			<output>
				<port id="2" precision="FP16">
					<dim>1</dim>
					<dim>116</dim>
					<dim>40</dim>
					<dim>40</dim>
				</port>
			</output>
		</layer>
		<layer id="100" name="409" type="ShapeOf" version="opset3">
			<data output_type="i64"/>
			<input>
				<port id="0">
					<dim>1</dim>
					<dim>116</dim>
					<dim>40</dim>
					<dim>40</dim>
				</port>
			</input>
			<output>
				<port id="1" precision="I64">
					<dim>4</dim>
				</port>
			</output>
		</layer>
		<layer id="101" name="4102460/Cast_121563_const" type="Const" version="opset1">
			<data element_type="i32" offset="9560" shape="" size="4"/>
			<output>
				<port id="1" precision="I32"/>
			</output>
		</layer>
		<layer id="102" name="4102460/Cast_221565_const" type="Const" version="opset1">
			<data element_type="i64" offset="9564" shape="" size="8"/>
			<output>
				<port id="1" precision="I64"/>
			</output>
		</layer>
		<layer id="103" name="4102460" type="Gather" version="opset1">
			<input>
				<port id="0">
					<dim>4</dim>
				</port>
				<port id="1"/>
				<port id="2"/>
			</input>
			<output>
				<port id="3" precision="I64"/>
			</output>
		</layer>
		<layer id="104" name="423/Dims/Output_0/Data__const2102_const" type="Const" version="opset1">
			<data element_type="i64" offset="9564" shape="1" size="8"/>
			<output>
				<port id="1" precision="I64">
					<dim>1</dim>
				</port>
			</output>
		</layer>
		<layer id="105" name="423/Unsqueeze" type="Unsqueeze" version="opset1">
			<input>
				<port id="0"/>
				<port id="1">
					<dim>1</dim>
				</port>
			</input>
			<output>
				<port id="2" precision="I64">
					<dim>1</dim>
				</port>
			</output>
		</layer>
		<layer id="106" name="424/Unsqueeze/Output_0/Data__const2104_const" type="Const" version="opset1">
			<data element_type="i64" offset="9572" shape="1" size="8"/>
			<output>
				<port id="1" precision="I64">
					<dim>1</dim>
				</port>
			</output>
		</layer>
		<layer id="107" name="412" type="ShapeOf" version="opset3">
			<data output_type="i64"/>
			<input>
				<port id="0">
					<dim>1</dim>
					<dim>116</dim>
					<dim>40</dim>
					<dim>40</dim>
				</port>
			</input>
			<output>
				<port id="1" precision="I64">
					<dim>4</dim>
				</port>
			</output>
		</layer>
		<layer id="108" name="4132428/Cast_121815_const" type="Const" version="opset1">
			<data element_type="i32" offset="9580" shape="" size="4"/>
			<output>
				<port id="1" precision="I32"/>
			</output>
		</layer>
		<layer id="109" name="4132428/Cast_221817_const" type="Const" version="opset1">
			<data element_type="i64" offset="9564" shape="" size="8"/>
			<output>
				<port id="1" precision="I64"/>
			</output>
		</layer>
		<layer id="110" name="4132428" type="Gather" version="opset1">
			<input>
				<port id="0">
					<dim>4</dim>
				</port>
				<port id="1"/>
				<port id="2"/>
			</input>
			<output>
				<port id="3" precision="I64"/>
			</output>
		</layer>
		<layer id="111" name="420/Output_0/Data__const2109_const" type="Const" version="opset1">
			<data element_type="i64" offset="9572" shape="" size="8"/>
			<output>
				<port id="1" precision="I64"/>
			</output>
		</layer>
		<layer id="112" name="421" type="Divide" version="opset1">
			<input>
				<port id="0"/>
				<port id="1"/>
			</input>
			<output>
				<port id="2" precision="I64"/>
			</output>
		</layer>
		<layer id="113" name="425/Dims/Output_0/Data__const2111_const" type="Const" version="opset1">
			<data element_type="i64" offset="9564" shape="1" size="8"/>
			<output>
				<port id="1" precision="I64">
					<dim>1</dim>
				</port>
			</output>
		</layer>
		<layer id="114" name="425/Unsqueeze" type="Unsqueeze" version="opset1">
			<input>
				<port id="0"/>
				<port id="1">
					<dim>1</dim>
				</port>
			</input>
			<output>
				<port id="2" precision="I64">
					<dim>1</dim>
				</port>
			</output>
		</layer>
		<layer id="115" name="415" type="ShapeOf" version="opset3">
			<data output_type="i64"/>
			<input>
				<port id="0">
					<dim>1</dim>
					<dim>116</dim>
					<dim>40</dim>
					<dim>40</dim>
				</port>
			</input>
			<output>
				<port id="1" precision="I64">
					<dim>4</dim>
				</port>
			</output>
		</layer>
		<layer id="116" name="4162376/Cast_121417_const" type="Const" version="opset1">
			<data element_type="i32" offset="9584" shape="" size="4"/>
			<output>
				<port id="1" precision="I32"/>
			</output>
		</layer>
		<layer id="117" name="4162376/Cast_221419_const" type="Const" version="opset1">
			<data element_type="i64" offset="9564" shape="" size="8"/>
			<output>
				<port id="1" precision="I64"/>
			</output>
		</layer>
		<layer id="118" name="4162376" type="Gather" version="opset1">
			<input>
				<port id="0">
					<dim>4</dim>
				</port>
				<port id="1"/>
				<port id="2"/>
			</input>
			<output>
				<port id="3" precision="I64"/>
			</output>
		</layer>
		<layer id="119" name="426/Dims/Output_0/Data__const2117_const" type="Const" version="opset1">
			<data element_type="i64" offset="9564" shape="1" size="8"/>
			<output>
				<port id="1" precision="I64">
					<dim>1</dim>
				</port>
			</output>
		</layer>
		<layer id="120" name="426/Unsqueeze" type="Unsqueeze" version="opset1">
			<input>
				<port id="0"/>
				<port id="1">
					<dim>1</dim>
				</port>
			</input>
			<output>
				<port id="2" precision="I64">
					<dim>1</dim>
				</port>
			</output>
		</layer>
		<layer id="121" name="418" type="ShapeOf" version="opset3">
			<data output_type="i64"/>
			<input>
				<port id="0">
					<dim>1</dim>
					<dim>116</dim>
					<dim>40</dim>
					<dim>40</dim>
				</port>
			</input>
			<output>
				<port id="1" precision="I64">
					<dim>4</dim>
				</port>
			</output>
		</layer>
		<layer id="122" name="4192568/Cast_121803_const" type="Const" version="opset1">
			<data element_type="i32" offset="9588" shape="" size="4"/>
			<output>
				<port id="1" precision="I32"/>
			</output>
		</layer>
		<layer id="123" name="4192568/Cast_221805_const" type="Const" version="opset1">
			<data element_type="i64" offset="9564" shape="" size="8"/>
			<output>
				<port id="1" precision="I64"/>
			</output>
		</layer>
		<layer id="124" name="4192568" type="Gather" version="opset1">
			<input>
				<port id="0">
					<dim>4</dim>
				</port>
				<port id="1"/>
				<port id="2"/>
			</input>
			<output>
				<port id="3" precision="I64"/>
			</output>
		</layer>
		<layer id="125" name="427/Dims/Output_0/Data__const2123_const" type="Const" version="opset1">
			<data element_type="i64" offset="9564" shape="1" size="8"/>
			<output>
				<port id="1" precision="I64">
					<dim>1</dim>
				</port>
			</output>
		</layer>
		<layer id="126" name="427/Unsqueeze" type="Unsqueeze" version="opset1">
			<input>
				<port id="0"/>
				<port id="1">
					<dim>1</dim>
				</port>
			</input>
			<output>
				<port id="2" precision="I64">
					<dim>1</dim>
				</port>
			</output>
		</layer>
		<layer id="127" name="428" type="Concat" version="opset1">
			<data axis="0"/>
			<input>
				<port id="0">
					<dim>1</dim>
				</port>
				<port id="1">
					<dim>1</dim>
				</port>
				<port id="2">
					<dim>1</dim>
				</port>
				<port id="3">
					<dim>1</dim>
				</port>
				<port id="4">
					<dim>1</dim>
				</port>
			</input>
			<output>
				<port id="5" precision="I64">
					<dim>5</dim>
				</port>
			</output>
		</layer>
		<layer id="128" name="429" type="Reshape" version="opset1">
			<data special_zero="True"/>
			<input>
				<port id="0">
					<dim>1</dim>
					<dim>116</dim>
					<dim>40</dim>
					<dim>40</dim>
				</port>
				<port id="1">
					<dim>5</dim>
				</port>
			</input>
			<output>
				<port id="2" precision="FP16">
					<dim>1</dim>
					<dim>2</dim>
					<dim>58</dim>
					<dim>40</dim>
					<dim>40</dim>
				</port>
			</output>
		</layer>
		<layer id="129" name="430/Cast_122269_const" type="Const" version="opset1">
			<data element_type="i64" offset="9592" shape="5" size="40"/>
			<output>
				<port id="1" precision="I64">
					<dim>5</dim>
				</port>
			</output>
		</layer>
		<layer id="130" name="430" type="Transpose" version="opset1">
			<input>
				<port id="0">
					<dim>1</dim>
					<dim>2</dim>
					<dim>58</dim>
					<dim>40</dim>
					<dim>40</dim>
				</port>
				<port id="1">
					<dim>5</dim>
				</port>
			</input>
			<output>
				<port id="2" precision="FP16">
					<dim>1</dim>
					<dim>58</dim>
					<dim>2</dim>
					<dim>40</dim>
					<dim>40</dim>
				</port>
			</output>
		</layer>
		<layer id="131" name="431/Dims/Output_0/Data__const2129_const" type="Const" version="opset1">
			<data element_type="i64" offset="9564" shape="1" size="8"/>
			<output>
				<port id="1" precision="I64">
					<dim>1</dim>
				</port>
			</output>
		</layer>
		<layer id="132" name="431/Unsqueeze" type="Unsqueeze" version="opset1">
			<input>
				<port id="0"/>
				<port id="1">
					<dim>1</dim>
				</port>
			</input>
			<output>
				<port id="2" precision="I64">
					<dim>1</dim>
				</port>
			</output>
		</layer>
		<layer id="133" name="432/Dims/Output_0/Data__const2131_const" type="Const" version="opset1">
			<data element_type="i64" offset="9564" shape="1" size="8"/>
			<output>
				<port id="1" precision="I64">
					<dim>1</dim>
				</port>
			</output>
		</layer>
		<layer id="134" name="432/Unsqueeze" type="Unsqueeze" version="opset1">
			<input>
				<port id="0"/>
				<port id="1">
					<dim>1</dim>
				</port>
			</input>
			<output>
				<port id="2" precision="I64">
					<dim>1</dim>
				</port>
			</output>
		</layer>
		<layer id="135" name="433/Dims/Output_0/Data__const2133_const" type="Const" version="opset1">
			<data element_type="i64" offset="9564" shape="1" size="8"/>
			<output>
				<port id="1" precision="I64">
					<dim>1</dim>
				</port>
			</output>
		</layer>
		<layer id="136" name="433/Unsqueeze" type="Unsqueeze" version="opset1">
			<input>
				<port id="0"/>
				<port id="1">
					<dim>1</dim>
				</port>
			</input>
			<output>
				<port id="2" precision="I64">
					<dim>1</dim>
				</port>
			</output>
		</layer>
		<layer id="137" name="434/Dims/Output_0/Data__const2135_const" type="Const" version="opset1">
			<data element_type="i64" offset="9564" shape="1" size="8"/>
			<output>
				<port id="1" precision="I64">
					<dim>1</dim>
				</port>
			</output>
		</layer>
		<layer id="138" name="434/Unsqueeze" type="Unsqueeze" version="opset1">
			<input>
				<port id="0"/>
				<port id="1">
					<dim>1</dim>
				</port>
			</input>
			<output>
				<port id="2" precision="I64">
					<dim>1</dim>
				</port>
			</output>
		</layer>
		<layer id="139" name="435" type="Concat" version="opset1">
			<data axis="0"/>
			<input>
				<port id="0">
					<dim>1</dim>
				</port>
				<port id="1">
					<dim>1</dim>
				</port>
				<port id="2">
					<dim>1</dim>
				</port>
				<port id="3">
					<dim>1</dim>
				</port>
			</input>
			<output>
				<port id="4" precision="I64">
					<dim>4</dim>
				</port>
			</output>
		</layer>
		<layer id="140" name="436" type="Reshape" version="opset1">
			<data special_zero="True"/>
			<input>
				<port id="0">
					<dim>1</dim>
					<dim>58</dim>
					<dim>2</dim>
					<dim>40</dim>
					<dim>40</dim>
				</port>
				<port id="1">
					<dim>4</dim>
				</port>
			</input>
			<output>
				<port id="2" precision="FP16">
					<dim>1</dim>
					<dim>116</dim>
					<dim>40</dim>
					<dim>40</dim>
				</port>
			</output>
		</layer>
		<layer id="141" name="437/VariadicSplit_input_port_1/value/Output_0/Data__const2139_const" type="Const" version="opset1">
			<data element_type="i64" offset="9632" shape="" size="8"/>
			<output>
				<port id="1" precision="I64"/>
			</output>
		</layer>
		<layer id="142" name="437/VariadicSplit_input_port_2/value/Output_0/Data__const2140_const" type="Const" version="opset1">
			<data element_type="i64" offset="9640" shape="2" size="16"/>
			<output>
				<port id="1" precision="I64">
					<dim>2</dim>
				</port>
			</output>
		</layer>
		<layer id="143" name="437/VariadicSplit" type="VariadicSplit" version="opset1">
			<input>
				<port id="0">
					<dim>1</dim>
					<dim>116</dim>
					<dim>40</dim>
					<dim>40</dim>
				</port>
				<port id="1"/>
				<port id="2">
					<dim>2</dim>
				</port>
			</input>
			<output>
				<port id="3" precision="FP16">
					<dim>1</dim>
					<dim>58</dim>
					<dim>40</dim>
					<dim>40</dim>
				</port>
				<port id="4" precision="FP16">
					<dim>1</dim>
					<dim>58</dim>
					<dim>40</dim>
					<dim>40</dim>
				</port>
			</output>
		</layer>
		<layer id="144" name="96559659_const" type="Const" version="opset1">
			<data element_type="f16" offset="9656" shape="1,1,1,1" size="2"/>
			<output>
				<port id="1" precision="FP16">
					<dim>1</dim>
					<dim>1</dim>
					<dim>1</dim>
					<dim>1</dim>
				</port>
			</output>
		</layer>
		<layer id="145" name="96569660_const" type="Const" version="opset1">
			<data element_type="f16" offset="9658" shape="1,1,1,1" size="2"/>
			<output>
				<port id="1" precision="FP16">
					<dim>1</dim>
					<dim>1</dim>
					<dim>1</dim>
					<dim>1</dim>
				</port>
			</output>
		</layer>
		<layer id="146" name="96579661_const" type="Const" version="opset1">
			<data element_type="f16" offset="9656" shape="1,1,1,1" size="2"/>
			<output>
				<port id="1" precision="FP16">
					<dim>1</dim>
					<dim>1</dim>
					<dim>1</dim>
					<dim>1</dim>
				</port>
			</output>
		</layer>
		<layer id="147" name="96589662_const" type="Const" version="opset1">
			<data element_type="f16" offset="9658" shape="1,1,1,1" size="2"/>
			<output>
				<port id="1" precision="FP16">
					<dim>1</dim>
					<dim>1</dim>
					<dim>1</dim>
					<dim>1</dim>
				</port>
			</output>
		</layer>
		<layer id="148" name="439/fq_input_0" type="FakeQuantize" version="opset1">
			<data levels="256"/>
			<input>
				<port id="0">
					<dim>1</dim>
					<dim>58</dim>
					<dim>40</dim>
					<dim>40</dim>
				</port>
				<port id="1">
					<dim>1</dim>
					<dim>1</dim>
					<dim>1</dim>
					<dim>1</dim>
				</port>
				<port id="2">
					<dim>1</dim>
					<dim>1</dim>
					<dim>1</dim>
					<dim>1</dim>
				</port>
				<port id="3">
					<dim>1</dim>
					<dim>1</dim>
					<dim>1</dim>
					<dim>1</dim>
				</port>
				<port id="4">
					<dim>1</dim>
					<dim>1</dim>
					<dim>1</dim>
					<dim>1</dim>
				</port>
			</input>
			<output>
				<port id="5" precision="FP16">
					<dim>1</dim>
					<dim>58</dim>
					<dim>40</dim>
					<dim>40</dim>
				</port>
			</output>
		</layer>
		<layer id="149" name="439/fq_weights_1/Convert_to_float/Cast_021691_const" type="Const" version="opset1">
			<data element_type="u8" offset="9660" shape="58,58,1,1" size="3364"/>
			<output>
				<port id="1" precision="U8">
					<dim>58</dim>
					<dim>58</dim>
					<dim>1</dim>
					<dim>1</dim>
				</port>
			</output>
		</layer>
		<layer id="150" name="439/fq_weights_1/Convert_to_float" type="Convert" version="opset1">
			<data destination_type="f16"/>
			<input>
				<port id="0">
					<dim>58</dim>
					<dim>58</dim>
					<dim>1</dim>
					<dim>1</dim>
				</port>
			</input>
			<output>
				<port id="1" precision="FP16">
					<dim>58</dim>
					<dim>58</dim>
					<dim>1</dim>
					<dim>1</dim>
				</port>
			</output>
		</layer>
		<layer id="151" name="439/fq_weights_1/Copy/out_low18557_const" type="Const" version="opset1">
			<data element_type="f16" offset="13024" shape="1" size="2"/>
			<output>
				<port id="1" precision="FP16">
					<dim>1</dim>
				</port>
			</output>
		</layer>
		<layer id="152" name="439/fq_weights_1/Copy/out_high18558_const" type="Const" version="opset1">
			<data element_type="f16" offset="666" shape="1" size="2"/>
			<output>
				<port id="1" precision="FP16">
					<dim>1</dim>
				</port>
			</output>
		</layer>
		<layer id="153" name="96679671_const" type="Const" version="opset1">
			<data element_type="f16" offset="13026" shape="58,1,1,1" size="116"/>
			<output>
				<port id="1" precision="FP16">
					<dim>58</dim>
					<dim>1</dim>
					<dim>1</dim>
					<dim>1</dim>
				</port>
			</output>
		</layer>
		<layer id="154" name="96689672_const" type="Const" version="opset1">
			<data element_type="f16" offset="13142" shape="58,1,1,1" size="116"/>
			<output>
				<port id="1" precision="FP16">
					<dim>58</dim>
					<dim>1</dim>
					<dim>1</dim>
					<dim>1</dim>
				</port>
			</output>
		</layer>
		<layer id="155" name="439/fq_weights_1" type="FakeQuantize" version="opset1">
			<data levels="255"/>
			<input>
				<port id="0">
					<dim>58</dim>
					<dim>58</dim>
					<dim>1</dim>
					<dim>1</dim>
				</port>
				<port id="1">
					<dim>1</dim>
				</port>
				<port id="2">
					<dim>1</dim>
				</port>
				<port id="3">
					<dim>58</dim>
					<dim>1</dim>
					<dim>1</dim>
					<dim>1</dim>
				</port>
				<port id="4">
					<dim>58</dim>
					<dim>1</dim>
					<dim>1</dim>
					<dim>1</dim>
				</port>
			</input>
			<output>
				<port id="5" precision="FP16">
					<dim>58</dim>
					<dim>58</dim>
					<dim>1</dim>
					<dim>1</dim>
				</port>
			</output>
		</layer>
		<layer id="156" name="439" type="Convolution" version="opset1">
			<data dilations="1,1" output_padding="0,0" pads_begin="0,0" pads_end="0,0" strides="1,1"/>
			<input>
				<port id="0">
					<dim>1</dim>
					<dim>58</dim>
					<dim>40</dim>
					<dim>40</dim>
				</port>
				<port id="1">
					<dim>58</dim>
					<dim>58</dim>
					<dim>1</dim>
					<dim>1</dim>
				</port>
			</input>
			<output>
				<port id="2" precision="FP16">
					<dim>1</dim>
					<dim>58</dim>
					<dim>40</dim>
					<dim>40</dim>
				</port>
			</output>
		</layer>
		<layer id="157" name="data_add_335333353834856/EltwiseUnsqueeze35454_const2145_const" type="Const" version="opset1">
			<data element_type="f16" offset="13258" shape="1,58,1,1" size="116"/>
			<output>
				<port id="1" precision="FP16">
					<dim>1</dim>
					<dim>58</dim>
					<dim>1</dim>
					<dim>1</dim>
				</port>
			</output>
		</layer>
		<layer id="158" name="440/variance/Fused_Add_" type="Add" version="opset1">
			<input>
				<port id="0">
					<dim>1</dim>
					<dim>58</dim>
					<dim>40</dim>
					<dim>40</dim>
				</port>
				<port id="1">
					<dim>1</dim>
					<dim>58</dim>
					<dim>1</dim>
					<dim>1</dim>
				</port>
			</input>
			<output>
				<port id="2" precision="FP16">
					<dim>1</dim>
					<dim>58</dim>
					<dim>40</dim>
					<dim>40</dim>
				</port>
			</output>
		</layer>
		<layer id="159" name="441" type="ReLU" version="opset1">
			<input>
				<port id="0">
					<dim>1</dim>
					<dim>58</dim>
					<dim>40</dim>
					<dim>40</dim>
				</port>
			</input>
			<output>
				<port id="1" precision="FP16">
					<dim>1</dim>
					<dim>58</dim>
					<dim>40</dim>
					<dim>40</dim>
				</port>
			</output>
		</layer>
		<layer id="160" name="97959799_const" type="Const" version="opset1">
			<data element_type="f16" offset="13374" shape="1,58,1,1" size="116"/>
			<output>
				<port id="1" precision="FP16">
					<dim>1</dim>
					<dim>58</dim>
					<dim>1</dim>
					<dim>1</dim>
				</port>
			</output>
		</layer>
		<layer id="161" name="97969800_const" type="Const" version="opset1">
			<data element_type="f16" offset="13490" shape="1,58,1,1" size="116"/>
			<output>
				<port id="1" precision="FP16">
					<dim>1</dim>
					<dim>58</dim>
					<dim>1</dim>
					<dim>1</dim>
				</port>
			</output>
		</layer>
		<layer id="162" name="97979801_const" type="Const" version="opset1">
			<data element_type="f16" offset="13374" shape="1,58,1,1" size="116"/>
			<output>
				<port id="1" precision="FP16">
					<dim>1</dim>
					<dim>58</dim>
					<dim>1</dim>
					<dim>1</dim>
				</port>
			</output>
		</layer>
		<layer id="163" name="97989802_const" type="Const" version="opset1">
			<data element_type="f16" offset="13490" shape="1,58,1,1" size="116"/>
			<output>
				<port id="1" precision="FP16">
					<dim>1</dim>
					<dim>58</dim>
					<dim>1</dim>
					<dim>1</dim>
				</port>
			</output>
		</layer>
		<layer id="164" name="442/fq_input_0" type="FakeQuantize" version="opset1">
			<data levels="256"/>
			<input>
				<port id="0">
					<dim>1</dim>
					<dim>58</dim>
					<dim>40</dim>
					<dim>40</dim>
				</port>
				<port id="1">
					<dim>1</dim>
					<dim>58</dim>
					<dim>1</dim>
					<dim>1</dim>
				</port>
				<port id="2">
					<dim>1</dim>
					<dim>58</dim>
					<dim>1</dim>
					<dim>1</dim>
				</port>
				<port id="3">
					<dim>1</dim>
					<dim>58</dim>
					<dim>1</dim>
					<dim>1</dim>
				</port>
				<port id="4">
					<dim>1</dim>
					<dim>58</dim>
					<dim>1</dim>
					<dim>1</dim>
				</port>
			</input>
			<output>
				<port id="5" precision="FP16">
					<dim>1</dim>
					<dim>58</dim>
					<dim>40</dim>
					<dim>40</dim>
				</port>
			</output>
		</layer>
		<layer id="165" name="442/fq_weights_1/Convert_to_float/Cast_021895_const" type="Const" version="opset1">
			<data element_type="u8" offset="13606" shape="58,1,3,3" size="522"/>
			<output>
				<port id="1" precision="U8">
					<dim>58</dim>
					<dim>1</dim>
					<dim>3</dim>
					<dim>3</dim>
				</port>
			</output>
		</layer>
		<layer id="166" name="442/fq_weights_1/Convert_to_float" type="Convert" version="opset1">
			<data destination_type="f16"/>
			<input>
				<port id="0">
					<dim>58</dim>
					<dim>1</dim>
					<dim>3</dim>
					<dim>3</dim>
				</port>
			</input>
			<output>
				<port id="1" precision="FP16">
					<dim>58</dim>
					<dim>1</dim>
					<dim>3</dim>
					<dim>3</dim>
				</port>
			</output>
		</layer>
		<layer id="167" name="442/fq_weights_1/Copy/out_low18493_const" type="Const" version="opset1">
			<data element_type="f16" offset="13024" shape="1" size="2"/>
			<output>
				<port id="1" precision="FP16">
					<dim>1</dim>
				</port>
			</output>
		</layer>
		<layer id="168" name="442/fq_weights_1/Copy/out_high18494_const" type="Const" version="opset1">
			<data element_type="f16" offset="666" shape="1" size="2"/>
			<output>
				<port id="1" precision="FP16">
					<dim>1</dim>
				</port>
			</output>
		</layer>
		<layer id="169" name="98079811_const" type="Const" version="opset1">
			<data element_type="f16" offset="14128" shape="58,1,1,1" size="116"/>
			<output>
				<port id="1" precision="FP16">
					<dim>58</dim>
					<dim>1</dim>
					<dim>1</dim>
					<dim>1</dim>
				</port>
			</output>
		</layer>
		<layer id="170" name="98089812_const" type="Const" version="opset1">
			<data element_type="f16" offset="14244" shape="58,1,1,1" size="116"/>
			<output>
				<port id="1" precision="FP16">
					<dim>58</dim>
					<dim>1</dim>
					<dim>1</dim>
					<dim>1</dim>
				</port>
			</output>
		</layer>
		<layer id="171" name="442/fq_weights_1" type="FakeQuantize" version="opset1">
			<data levels="255"/>
			<input>
				<port id="0">
					<dim>58</dim>
					<dim>1</dim>
					<dim>3</dim>
					<dim>3</dim>
				</port>
				<port id="1">
					<dim>1</dim>
				</port>
				<port id="2">
					<dim>1</dim>
				</port>
				<port id="3">
					<dim>58</dim>
					<dim>1</dim>
					<dim>1</dim>
					<dim>1</dim>
				</port>
				<port id="4">
					<dim>58</dim>
					<dim>1</dim>
					<dim>1</dim>
					<dim>1</dim>
				</port>
			</input>
			<output>
				<port id="5" precision="FP16">
					<dim>58</dim>
					<dim>1</dim>
					<dim>3</dim>
					<dim>3</dim>
				</port>
			</output>
		</layer>
		<layer id="172" name="24322/value24324_const" type="Const" version="opset1">
			<data element_type="i64" offset="5688" shape="5" size="40"/>
			<output>
				<port id="1" precision="I64">
					<dim>5</dim>
				</port>
			</output>
		</layer>
		<layer id="173" name="24322" type="Reshape" version="opset1">
			<data special_zero="True"/>
			<input>
				<port id="0">
					<dim>58</dim>
					<dim>1</dim>
					<dim>3</dim>
					<dim>3</dim>
				</port>
				<port id="1">
					<dim>5</dim>
				</port>
			</input>
			<output>
				<port id="2" precision="FP16">
					<dim>58</dim>
					<dim>1</dim>
					<dim>1</dim>
					<dim>3</dim>
					<dim>3</dim>
				</port>
			</output>
		</layer>
		<layer id="174" name="442" type="GroupConvolution" version="opset1">
			<data dilations="1,1" output_padding="0,0" pads_begin="1,1" pads_end="1,1" strides="1,1"/>
			<input>
				<port id="0">
					<dim>1</dim>
					<dim>58</dim>
					<dim>40</dim>
					<dim>40</dim>
				</port>
				<port id="1">
					<dim>58</dim>
					<dim>1</dim>
					<dim>1</dim>
					<dim>3</dim>
					<dim>3</dim>
				</port>
			</input>
			<output>
				<port id="2" precision="FP16">
					<dim>1</dim>
					<dim>58</dim>
					<dim>40</dim>
					<dim>40</dim>
				</port>
			</output>
		</layer>
		<layer id="175" name="data_add_335413354634858/EltwiseUnsqueeze35462_const2150_const" type="Const" version="opset1">
			<data element_type="f16" offset="14360" shape="1,58,1,1" size="116"/>
			<output>
				<port id="1" precision="FP16">
					<dim>1</dim>
					<dim>58</dim>
					<dim>1</dim>
					<dim>1</dim>
				</port>
			</output>
		</layer>
		<layer id="176" name="443/variance/Fused_Add_" type="Add" version="opset1">
			<input>
				<port id="0">
					<dim>1</dim>
					<dim>58</dim>
					<dim>40</dim>
					<dim>40</dim>
				</port>
				<port id="1">
					<dim>1</dim>
					<dim>58</dim>
					<dim>1</dim>
					<dim>1</dim>
				</port>
			</input>
			<output>
				<port id="2" precision="FP16">
					<dim>1</dim>
					<dim>58</dim>
					<dim>40</dim>
					<dim>40</dim>
				</port>
			</output>
		</layer>
		<layer id="177" name="71557159_const" type="Const" version="opset1">
			<data element_type="f16" offset="14476" shape="1,1,1,1" size="2"/>
			<output>
				<port id="1" precision="FP16">
					<dim>1</dim>
					<dim>1</dim>
					<dim>1</dim>
					<dim>1</dim>
				</port>
			</output>
		</layer>
		<layer id="178" name="71567160_const" type="Const" version="opset1">
			<data element_type="f16" offset="14478" shape="1,1,1,1" size="2"/>
			<output>
				<port id="1" precision="FP16">
					<dim>1</dim>
					<dim>1</dim>
					<dim>1</dim>
					<dim>1</dim>
				</port>
			</output>
		</layer>
		<layer id="179" name="71577161_const" type="Const" version="opset1">
			<data element_type="f16" offset="14476" shape="1,1,1,1" size="2"/>
			<output>
				<port id="1" precision="FP16">
					<dim>1</dim>
					<dim>1</dim>
					<dim>1</dim>
					<dim>1</dim>
				</port>
			</output>
		</layer>
		<layer id="180" name="71587162_const" type="Const" version="opset1">
			<data element_type="f16" offset="14478" shape="1,1,1,1" size="2"/>
			<output>
				<port id="1" precision="FP16">
					<dim>1</dim>
					<dim>1</dim>
					<dim>1</dim>
					<dim>1</dim>
				</port>
			</output>
		</layer>
		<layer id="181" name="444/fq_input_0" type="FakeQuantize" version="opset1">
			<data levels="256"/>
			<input>
				<port id="0">
					<dim>1</dim>
					<dim>58</dim>
					<dim>40</dim>
					<dim>40</dim>
				</port>
				<port id="1">
					<dim>1</dim>
					<dim>1</dim>
					<dim>1</dim>
					<dim>1</dim>
				</port>
				<port id="2">
					<dim>1</dim>
					<dim>1</dim>
					<dim>1</dim>
					<dim>1</dim>
				</port>
				<port id="3">
					<dim>1</dim>
					<dim>1</dim>
					<dim>1</dim>
					<dim>1</dim>
				</port>
				<port id="4">
					<dim>1</dim>
					<dim>1</dim>
					<dim>1</dim>
					<dim>1</dim>
				</port>
			</input>
			<output>
				<port id="5" precision="FP16">
					<dim>1</dim>
					<dim>58</dim>
					<dim>40</dim>
					<dim>40</dim>
				</port>
			</output>
		</layer>
		<layer id="182" name="444/fq_weights_1/Convert_to_float/Cast_021665_const" type="Const" version="opset1">
			<data element_type="u8" offset="14480" shape="58,58,1,1" size="3364"/>
			<output>
				<port id="1" precision="U8">
					<dim>58</dim>
					<dim>58</dim>
					<dim>1</dim>
					<dim>1</dim>
				</port>
			</output>
		</layer>
		<layer id="183" name="444/fq_weights_1/Convert_to_float" type="Convert" version="opset1">
			<data destination_type="f16"/>
			<input>
				<port id="0">
					<dim>58</dim>
					<dim>58</dim>
					<dim>1</dim>
					<dim>1</dim>
				</port>
			</input>
			<output>
				<port id="1" precision="FP16">
					<dim>58</dim>
					<dim>58</dim>
					<dim>1</dim>
					<dim>1</dim>
				</port>
			</output>
		</layer>
		<layer id="184" name="444/fq_weights_1/Copy/out_low18565_const" type="Const" version="opset1">
			<data element_type="f16" offset="13024" shape="1" size="2"/>
			<output>
				<port id="1" precision="FP16">
					<dim>1</dim>
				</port>
			</output>
		</layer>
		<layer id="185" name="444/fq_weights_1/Copy/out_high18566_const" type="Const" version="opset1">
			<data element_type="f16" offset="666" shape="1" size="2"/>
			<output>
				<port id="1" precision="FP16">
					<dim>1</dim>
				</port>
			</output>
		</layer>
		<layer id="186" name="71677171_const" type="Const" version="opset1">
			<data element_type="f16" offset="17844" shape="58,1,1,1" size="116"/>
			<output>
				<port id="1" precision="FP16">
					<dim>58</dim>
					<dim>1</dim>
					<dim>1</dim>
					<dim>1</dim>
				</port>
			</output>
		</layer>
		<layer id="187" name="71687172_const" type="Const" version="opset1">
			<data element_type="f16" offset="17960" shape="58,1,1,1" size="116"/>
			<output>
				<port id="1" precision="FP16">
					<dim>58</dim>
					<dim>1</dim>
					<dim>1</dim>
					<dim>1</dim>
				</port>
			</output>
		</layer>
		<layer id="188" name="444/fq_weights_1" type="FakeQuantize" version="opset1">
			<data levels="255"/>
			<input>
				<port id="0">
					<dim>58</dim>
					<dim>58</dim>
					<dim>1</dim>
					<dim>1</dim>
				</port>
				<port id="1">
					<dim>1</dim>
				</port>
				<port id="2">
					<dim>1</dim>
				</port>
				<port id="3">
					<dim>58</dim>
					<dim>1</dim>
					<dim>1</dim>
					<dim>1</dim>
				</port>
				<port id="4">
					<dim>58</dim>
					<dim>1</dim>
					<dim>1</dim>
					<dim>1</dim>
				</port>
			</input>
			<output>
				<port id="5" precision="FP16">
					<dim>58</dim>
					<dim>58</dim>
					<dim>1</dim>
					<dim>1</dim>
				</port>
			</output>
		</layer>
		<layer id="189" name="444" type="Convolution" version="opset1">
			<data dilations="1,1" output_padding="0,0" pads_begin="0,0" pads_end="0,0" strides="1,1"/>
			<input>
				<port id="0">
					<dim>1</dim>
					<dim>58</dim>
					<dim>40</dim>
					<dim>40</dim>
				</port>
				<port id="1">
					<dim>58</dim>
					<dim>58</dim>
					<dim>1</dim>
					<dim>1</dim>
				</port>
			</input>
			<output>
				<port id="2" precision="FP16">
					<dim>1</dim>
					<dim>58</dim>
					<dim>40</dim>
					<dim>40</dim>
				</port>
			</output>
		</layer>
		<layer id="190" name="data_add_335493355434860/EltwiseUnsqueeze35470_const2154_const" type="Const" version="opset1">
			<data element_type="f16" offset="18076" shape="1,58,1,1" size="116"/>
			<output>
				<port id="1" precision="FP16">
					<dim>1</dim>
					<dim>58</dim>
					<dim>1</dim>
					<dim>1</dim>
				</port>
			</output>
		</layer>
		<layer id="191" name="445/variance/Fused_Add_" type="Add" version="opset1">
			<input>
				<port id="0">
					<dim>1</dim>
					<dim>58</dim>
					<dim>40</dim>
					<dim>40</dim>
				</port>
				<port id="1">
					<dim>1</dim>
					<dim>58</dim>
					<dim>1</dim>
					<dim>1</dim>
				</port>
			</input>
			<output>
				<port id="2" precision="FP16">
					<dim>1</dim>
					<dim>58</dim>
					<dim>40</dim>
					<dim>40</dim>
				</port>
			</output>
		</layer>
		<layer id="192" name="446" type="ReLU" version="opset1">
			<input>
				<port id="0">
					<dim>1</dim>
					<dim>58</dim>
					<dim>40</dim>
					<dim>40</dim>
				</port>
			</input>
			<output>
				<port id="1" precision="FP16">
					<dim>1</dim>
					<dim>58</dim>
					<dim>40</dim>
					<dim>40</dim>
				</port>
			</output>
		</layer>
		<layer id="193" name="447" type="Concat" version="opset1">
			<data axis="1"/>
			<input>
				<port id="0">
					<dim>1</dim>
					<dim>58</dim>
					<dim>40</dim>
					<dim>40</dim>
				</port>
				<port id="1">
					<dim>1</dim>
					<dim>58</dim>
					<dim>40</dim>
					<dim>40</dim>
				</port>
			</input>
			<output>
				<port id="2" precision="FP16">
					<dim>1</dim>
					<dim>116</dim>
					<dim>40</dim>
					<dim>40</dim>
				</port>
			</output>
		</layer>
		<layer id="194" name="449" type="ShapeOf" version="opset3">
			<data output_type="i64"/>
			<input>
				<port id="0">
					<dim>1</dim>
					<dim>116</dim>
					<dim>40</dim>
					<dim>40</dim>
				</port>
			</input>
			<output>
				<port id="1" precision="I64">
					<dim>4</dim>
				</port>
			</output>
		</layer>
		<layer id="195" name="4502374/Cast_122231_const" type="Const" version="opset1">
			<data element_type="i32" offset="9560" shape="" size="4"/>
			<output>
				<port id="1" precision="I32"/>
			</output>
		</layer>
		<layer id="196" name="4502374/Cast_222233_const" type="Const" version="opset1">
			<data element_type="i64" offset="9564" shape="" size="8"/>
			<output>
				<port id="1" precision="I64"/>
			</output>
		</layer>
		<layer id="197" name="4502374" type="Gather" version="opset1">
			<input>
				<port id="0">
					<dim>4</dim>
				</port>
				<port id="1"/>
				<port id="2"/>
			</input>
			<output>
				<port id="3" precision="I64"/>
			</output>
		</layer>
		<layer id="198" name="463/Dims/Output_0/Data__const2162_const" type="Const" version="opset1">
			<data element_type="i64" offset="9564" shape="1" size="8"/>
			<output>
				<port id="1" precision="I64">
					<dim>1</dim>
				</port>
			</output>
		</layer>
		<layer id="199" name="463/Unsqueeze" type="Unsqueeze" version="opset1">
			<input>
				<port id="0"/>
				<port id="1">
					<dim>1</dim>
				</port>
			</input>
			<output>
				<port id="2" precision="I64">
					<dim>1</dim>
				</port>
			</output>
		</layer>
		<layer id="200" name="464/Unsqueeze/Output_0/Data__const2164_const" type="Const" version="opset1">
			<data element_type="i64" offset="9572" shape="1" size="8"/>
			<output>
				<port id="1" precision="I64">
					<dim>1</dim>
				</port>
			</output>
		</layer>
		<layer id="201" name="452" type="ShapeOf" version="opset3">
			<data output_type="i64"/>
			<input>
				<port id="0">
					<dim>1</dim>
					<dim>116</dim>
					<dim>40</dim>
					<dim>40</dim>
				</port>
			</input>
			<output>
				<port id="1" precision="I64">
					<dim>4</dim>
				</port>
			</output>
		</layer>
		<layer id="202" name="4532548/Cast_121449_const" type="Const" version="opset1">
			<data element_type="i32" offset="9580" shape="" size="4"/>
			<output>
				<port id="1" precision="I32"/>
			</output>
		</layer>
		<layer id="203" name="4532548/Cast_221451_const" type="Const" version="opset1">
			<data element_type="i64" offset="9564" shape="" size="8"/>
			<output>
				<port id="1" precision="I64"/>
			</output>
		</layer>
		<layer id="204" name="4532548" type="Gather" version="opset1">
			<input>
				<port id="0">
					<dim>4</dim>
				</port>
				<port id="1"/>
				<port id="2"/>
			</input>
			<output>
				<port id="3" precision="I64"/>
			</output>
		</layer>
		<layer id="205" name="460/Output_0/Data__const2169_const" type="Const" version="opset1">
			<data element_type="i64" offset="9572" shape="" size="8"/>
			<output>
				<port id="1" precision="I64"/>
			</output>
		</layer>
		<layer id="206" name="461" type="Divide" version="opset1">
			<input>
				<port id="0"/>
				<port id="1"/>
			</input>
			<output>
				<port id="2" precision="I64"/>
			</output>
		</layer>
		<layer id="207" name="465/Dims/Output_0/Data__const2171_const" type="Const" version="opset1">
			<data element_type="i64" offset="9564" shape="1" size="8"/>
			<output>
				<port id="1" precision="I64">
					<dim>1</dim>
				</port>
			</output>
		</layer>
		<layer id="208" name="465/Unsqueeze" type="Unsqueeze" version="opset1">
			<input>
				<port id="0"/>
				<port id="1">
					<dim>1</dim>
				</port>
			</input>
			<output>
				<port id="2" precision="I64">
					<dim>1</dim>
				</port>
			</output>
		</layer>
		<layer id="209" name="455" type="ShapeOf" version="opset3">
			<data output_type="i64"/>
			<input>
				<port id="0">
					<dim>1</dim>
					<dim>116</dim>
					<dim>40</dim>
					<dim>40</dim>
				</port>
			</input>
			<output>
				<port id="1" precision="I64">
					<dim>4</dim>
				</port>
			</output>
		</layer>
		<layer id="210" name="4562500/Cast_121667_const" type="Const" version="opset1">
			<data element_type="i32" offset="9584" shape="" size="4"/>
			<output>
				<port id="1" precision="I32"/>
			</output>
		</layer>
		<layer id="211" name="4562500/Cast_221669_const" type="Const" version="opset1">
			<data element_type="i64" offset="9564" shape="" size="8"/>
			<output>
				<port id="1" precision="I64"/>
			</output>
		</layer>
		<layer id="212" name="4562500" type="Gather" version="opset1">
			<input>
				<port id="0">
					<dim>4</dim>
				</port>
				<port id="1"/>
				<port id="2"/>
			</input>
			<output>
				<port id="3" precision="I64"/>
			</output>
		</layer>
		<layer id="213" name="466/Dims/Output_0/Data__const2177_const" type="Const" version="opset1">
			<data element_type="i64" offset="9564" shape="1" size="8"/>
			<output>
				<port id="1" precision="I64">
					<dim>1</dim>
				</port>
			</output>
		</layer>
		<layer id="214" name="466/Unsqueeze" type="Unsqueeze" version="opset1">
			<input>
				<port id="0"/>
				<port id="1">
					<dim>1</dim>
				</port>
			</input>
			<output>
				<port id="2" precision="I64">
					<dim>1</dim>
				</port>
			</output>
		</layer>
		<layer id="215" name="458" type="ShapeOf" version="opset3">
			<data output_type="i64"/>
			<input>
				<port id="0">
					<dim>1</dim>
					<dim>116</dim>
					<dim>40</dim>
					<dim>40</dim>
				</port>
			</input>
			<output>
				<port id="1" precision="I64">
					<dim>4</dim>
				</port>
			</output>
		</layer>
		<layer id="216" name="4592444/Cast_121605_const" type="Const" version="opset1">
			<data element_type="i32" offset="9588" shape="" size="4"/>
			<output>
				<port id="1" precision="I32"/>
			</output>
		</layer>
		<layer id="217" name="4592444/Cast_221607_const" type="Const" version="opset1">
			<data element_type="i64" offset="9564" shape="" size="8"/>
			<output>
				<port id="1" precision="I64"/>
			</output>
		</layer>
		<layer id="218" name="4592444" type="Gather" version="opset1">
			<input>
				<port id="0">
					<dim>4</dim>
				</port>
				<port id="1"/>
				<port id="2"/>
			</input>
			<output>
				<port id="3" precision="I64"/>
			</output>
		</layer>
		<layer id="219" name="467/Dims/Output_0/Data__const2183_const" type="Const" version="opset1">
			<data element_type="i64" offset="9564" shape="1" size="8"/>
			<output>
				<port id="1" precision="I64">
					<dim>1</dim>
				</port>
			</output>
		</layer>
		<layer id="220" name="467/Unsqueeze" type="Unsqueeze" version="opset1">
			<input>
				<port id="0"/>
				<port id="1">
					<dim>1</dim>
				</port>
			</input>
			<output>
				<port id="2" precision="I64">
					<dim>1</dim>
				</port>
			</output>
		</layer>
		<layer id="221" name="468" type="Concat" version="opset1">
			<data axis="0"/>
			<input>
				<port id="0">
					<dim>1</dim>
				</port>
				<port id="1">
					<dim>1</dim>
				</port>
				<port id="2">
					<dim>1</dim>
				</port>
				<port id="3">
					<dim>1</dim>
				</port>
				<port id="4">
					<dim>1</dim>
				</port>
			</input>
			<output>
				<port id="5" precision="I64">
					<dim>5</dim>
				</port>
			</output>
		</layer>
		<layer id="222" name="469" type="Reshape" version="opset1">
			<data special_zero="True"/>
			<input>
				<port id="0">
					<dim>1</dim>
					<dim>116</dim>
					<dim>40</dim>
					<dim>40</dim>
				</port>
				<port id="1">
					<dim>5</dim>
				</port>
			</input>
			<output>
				<port id="2" precision="FP16">
					<dim>1</dim>
					<dim>2</dim>
					<dim>58</dim>
					<dim>40</dim>
					<dim>40</dim>
				</port>
			</output>
		</layer>
		<layer id="223" name="470/Cast_121467_const" type="Const" version="opset1">
			<data element_type="i64" offset="9592" shape="5" size="40"/>
			<output>
				<port id="1" precision="I64">
					<dim>5</dim>
				</port>
			</output>
		</layer>
		<layer id="224" name="470" type="Transpose" version="opset1">
			<input>
				<port id="0">
					<dim>1</dim>
					<dim>2</dim>
					<dim>58</dim>
					<dim>40</dim>
					<dim>40</dim>
				</port>
				<port id="1">
					<dim>5</dim>
				</port>
			</input>
			<output>
				<port id="2" precision="FP16">
					<dim>1</dim>
					<dim>58</dim>
					<dim>2</dim>
					<dim>40</dim>
					<dim>40</dim>
				</port>
			</output>
		</layer>
		<layer id="225" name="471/Dims/Output_0/Data__const2189_const" type="Const" version="opset1">
			<data element_type="i64" offset="9564" shape="1" size="8"/>
			<output>
				<port id="1" precision="I64">
					<dim>1</dim>
				</port>
			</output>
		</layer>
		<layer id="226" name="471/Unsqueeze" type="Unsqueeze" version="opset1">
			<input>
				<port id="0"/>
				<port id="1">
					<dim>1</dim>
				</port>
			</input>
			<output>
				<port id="2" precision="I64">
					<dim>1</dim>
				</port>
			</output>
		</layer>
		<layer id="227" name="472/Dims/Output_0/Data__const2191_const" type="Const" version="opset1">
			<data element_type="i64" offset="9564" shape="1" size="8"/>
			<output>
				<port id="1" precision="I64">
					<dim>1</dim>
				</port>
			</output>
		</layer>
		<layer id="228" name="472/Unsqueeze" type="Unsqueeze" version="opset1">
			<input>
				<port id="0"/>
				<port id="1">
					<dim>1</dim>
				</port>
			</input>
			<output>
				<port id="2" precision="I64">
					<dim>1</dim>
				</port>
			</output>
		</layer>
		<layer id="229" name="473/Dims/Output_0/Data__const2193_const" type="Const" version="opset1">
			<data element_type="i64" offset="9564" shape="1" size="8"/>
			<output>
				<port id="1" precision="I64">
					<dim>1</dim>
				</port>
			</output>
		</layer>
		<layer id="230" name="473/Unsqueeze" type="Unsqueeze" version="opset1">
			<input>
				<port id="0"/>
				<port id="1">
					<dim>1</dim>
				</port>
			</input>
			<output>
				<port id="2" precision="I64">
					<dim>1</dim>
				</port>
			</output>
		</layer>
		<layer id="231" name="474/Dims/Output_0/Data__const2195_const" type="Const" version="opset1">
			<data element_type="i64" offset="9564" shape="1" size="8"/>
			<output>
				<port id="1" precision="I64">
					<dim>1</dim>
				</port>
			</output>
		</layer>
		<layer id="232" name="474/Unsqueeze" type="Unsqueeze" version="opset1">
			<input>
				<port id="0"/>
				<port id="1">
					<dim>1</dim>
				</port>
			</input>
			<output>
				<port id="2" precision="I64">
					<dim>1</dim>
				</port>
			</output>
		</layer>
		<layer id="233" name="475" type="Concat" version="opset1">
			<data axis="0"/>
			<input>
				<port id="0">
					<dim>1</dim>
				</port>
				<port id="1">
					<dim>1</dim>
				</port>
				<port id="2">
					<dim>1</dim>
				</port>
				<port id="3">
					<dim>1</dim>
				</port>
			</input>
			<output>
				<port id="4" precision="I64">
					<dim>4</dim>
				</port>
			</output>
		</layer>
		<layer id="234" name="476" type="Reshape" version="opset1">
			<data special_zero="True"/>
			<input>
				<port id="0">
					<dim>1</dim>
					<dim>58</dim>
					<dim>2</dim>
					<dim>40</dim>
					<dim>40</dim>
				</port>
				<port id="1">
					<dim>4</dim>
				</port>
			</input>
			<output>
				<port id="2" precision="FP16">
					<dim>1</dim>
					<dim>116</dim>
					<dim>40</dim>
					<dim>40</dim>
				</port>
			</output>
		</layer>
		<layer id="235" name="477/VariadicSplit_input_port_1/value/Output_0/Data__const2199_const" type="Const" version="opset1">
			<data element_type="i64" offset="9632" shape="" size="8"/>
			<output>
				<port id="1" precision="I64"/>
			</output>
		</layer>
		<layer id="236" name="477/VariadicSplit_input_port_2/value/Output_0/Data__const2200_const" type="Const" version="opset1">
			<data element_type="i64" offset="9640" shape="2" size="16"/>
			<output>
				<port id="1" precision="I64">
					<dim>2</dim>
				</port>
			</output>
		</layer>
		<layer id="237" name="477/VariadicSplit" type="VariadicSplit" version="opset1">
			<input>
				<port id="0">
					<dim>1</dim>
					<dim>116</dim>
					<dim>40</dim>
					<dim>40</dim>
				</port>
				<port id="1"/>
				<port id="2">
					<dim>2</dim>
				</port>
			</input>
			<output>
				<port id="3" precision="FP16">
					<dim>1</dim>
					<dim>58</dim>
					<dim>40</dim>
					<dim>40</dim>
				</port>
				<port id="4" precision="FP16">
					<dim>1</dim>
					<dim>58</dim>
					<dim>40</dim>
					<dim>40</dim>
				</port>
			</output>
		</layer>
		<layer id="238" name="84058409_const" type="Const" version="opset1">
			<data element_type="f16" offset="18192" shape="1,1,1,1" size="2"/>
			<output>
				<port id="1" precision="FP16">
					<dim>1</dim>
					<dim>1</dim>
					<dim>1</dim>
					<dim>1</dim>
				</port>
			</output>
		</layer>
		<layer id="239" name="84068410_const" type="Const" version="opset1">
			<data element_type="f16" offset="18194" shape="1,1,1,1" size="2"/>
			<output>
				<port id="1" precision="FP16">
					<dim>1</dim>
					<dim>1</dim>
					<dim>1</dim>
					<dim>1</dim>
				</port>
			</output>
		</layer>
		<layer id="240" name="84078411_const" type="Const" version="opset1">
			<data element_type="f16" offset="18192" shape="1,1,1,1" size="2"/>
			<output>
				<port id="1" precision="FP16">
					<dim>1</dim>
					<dim>1</dim>
					<dim>1</dim>
					<dim>1</dim>
				</port>
			</output>
		</layer>
		<layer id="241" name="84088412_const" type="Const" version="opset1">
			<data element_type="f16" offset="18194" shape="1,1,1,1" size="2"/>
			<output>
				<port id="1" precision="FP16">
					<dim>1</dim>
					<dim>1</dim>
					<dim>1</dim>
					<dim>1</dim>
				</port>
			</output>
		</layer>
		<layer id="242" name="479/fq_input_0" type="FakeQuantize" version="opset1">
			<data levels="256"/>
			<input>
				<port id="0">
					<dim>1</dim>
					<dim>58</dim>
					<dim>40</dim>
					<dim>40</dim>
				</port>
				<port id="1">
					<dim>1</dim>
					<dim>1</dim>
					<dim>1</dim>
					<dim>1</dim>
				</port>
				<port id="2">
					<dim>1</dim>
					<dim>1</dim>
					<dim>1</dim>
					<dim>1</dim>
				</port>
				<port id="3">
					<dim>1</dim>
					<dim>1</dim>
					<dim>1</dim>
					<dim>1</dim>
				</port>
				<port id="4">
					<dim>1</dim>
					<dim>1</dim>
					<dim>1</dim>
					<dim>1</dim>
				</port>
			</input>
			<output>
				<port id="5" precision="FP16">
					<dim>1</dim>
					<dim>58</dim>
					<dim>40</dim>
					<dim>40</dim>
				</port>
			</output>
		</layer>
		<layer id="243" name="479/fq_weights_1/Convert_to_float/Cast_022063_const" type="Const" version="opset1">
			<data element_type="u8" offset="18196" shape="58,58,1,1" size="3364"/>
			<output>
				<port id="1" precision="U8">
					<dim>58</dim>
					<dim>58</dim>
					<dim>1</dim>
					<dim>1</dim>
				</port>
			</output>
		</layer>
		<layer id="244" name="479/fq_weights_1/Convert_to_float" type="Convert" version="opset1">
			<data destination_type="f16"/>
			<input>
				<port id="0">
					<dim>58</dim>
					<dim>58</dim>
					<dim>1</dim>
					<dim>1</dim>
				</port>
			</input>
			<output>
				<port id="1" precision="FP16">
					<dim>58</dim>
					<dim>58</dim>
					<dim>1</dim>
					<dim>1</dim>
				</port>
			</output>
		</layer>
		<layer id="245" name="479/fq_weights_1/Copy/out_low19157_const" type="Const" version="opset1">
			<data element_type="f16" offset="21560" shape="1" size="2"/>
			<output>
				<port id="1" precision="FP16">
					<dim>1</dim>
				</port>
			</output>
		</layer>
		<layer id="246" name="479/fq_weights_1/Copy/out_high19158_const" type="Const" version="opset1">
			<data element_type="f16" offset="666" shape="1" size="2"/>
			<output>
				<port id="1" precision="FP16">
					<dim>1</dim>
				</port>
			</output>
		</layer>
		<layer id="247" name="84178421_const" type="Const" version="opset1">
			<data element_type="f16" offset="21562" shape="58,1,1,1" size="116"/>
			<output>
				<port id="1" precision="FP16">
					<dim>58</dim>
					<dim>1</dim>
					<dim>1</dim>
					<dim>1</dim>
				</port>
			</output>
		</layer>
		<layer id="248" name="84188422_const" type="Const" version="opset1">
			<data element_type="f16" offset="21678" shape="58,1,1,1" size="116"/>
			<output>
				<port id="1" precision="FP16">
					<dim>58</dim>
					<dim>1</dim>
					<dim>1</dim>
					<dim>1</dim>
				</port>
			</output>
		</layer>
		<layer id="249" name="479/fq_weights_1" type="FakeQuantize" version="opset1">
			<data levels="255"/>
			<input>
				<port id="0">
					<dim>58</dim>
					<dim>58</dim>
					<dim>1</dim>
					<dim>1</dim>
				</port>
				<port id="1">
					<dim>1</dim>
				</port>
				<port id="2">
					<dim>1</dim>
				</port>
				<port id="3">
					<dim>58</dim>
					<dim>1</dim>
					<dim>1</dim>
					<dim>1</dim>
				</port>
				<port id="4">
					<dim>58</dim>
					<dim>1</dim>
					<dim>1</dim>
					<dim>1</dim>
				</port>
			</input>
			<output>
				<port id="5" precision="FP16">
					<dim>58</dim>
					<dim>58</dim>
					<dim>1</dim>
					<dim>1</dim>
				</port>
			</output>
		</layer>
		<layer id="250" name="479" type="Convolution" version="opset1">
			<data dilations="1,1" output_padding="0,0" pads_begin="0,0" pads_end="0,0" strides="1,1"/>
			<input>
				<port id="0">
					<dim>1</dim>
					<dim>58</dim>
					<dim>40</dim>
					<dim>40</dim>
				</port>
				<port id="1">
					<dim>58</dim>
					<dim>58</dim>
					<dim>1</dim>
					<dim>1</dim>
				</port>
			</input>
			<output>
				<port id="2" precision="FP16">
					<dim>1</dim>
					<dim>58</dim>
					<dim>40</dim>
					<dim>40</dim>
				</port>
			</output>
		</layer>
		<layer id="251" name="data_add_335573356234862/EltwiseUnsqueeze35478_const2205_const" type="Const" version="opset1">
			<data element_type="f16" offset="21794" shape="1,58,1,1" size="116"/>
			<output>
				<port id="1" precision="FP16">
					<dim>1</dim>
					<dim>58</dim>
					<dim>1</dim>
					<dim>1</dim>
				</port>
			</output>
		</layer>
		<layer id="252" name="480/variance/Fused_Add_" type="Add" version="opset1">
			<input>
				<port id="0">
					<dim>1</dim>
					<dim>58</dim>
					<dim>40</dim>
					<dim>40</dim>
				</port>
				<port id="1">
					<dim>1</dim>
					<dim>58</dim>
					<dim>1</dim>
					<dim>1</dim>
				</port>
			</input>
			<output>
				<port id="2" precision="FP16">
					<dim>1</dim>
					<dim>58</dim>
					<dim>40</dim>
					<dim>40</dim>
				</port>
			</output>
		</layer>
		<layer id="253" name="481" type="ReLU" version="opset1">
			<input>
				<port id="0">
					<dim>1</dim>
					<dim>58</dim>
					<dim>40</dim>
					<dim>40</dim>
				</port>
			</input>
			<output>
				<port id="1" precision="FP16">
					<dim>1</dim>
					<dim>58</dim>
					<dim>40</dim>
					<dim>40</dim>
				</port>
			</output>
		</layer>
		<layer id="254" name="86558659_const" type="Const" version="opset1">
			<data element_type="f16" offset="4702" shape="1,58,1,1" size="116"/>
			<output>
				<port id="1" precision="FP16">
					<dim>1</dim>
					<dim>58</dim>
					<dim>1</dim>
					<dim>1</dim>
				</port>
			</output>
		</layer>
		<layer id="255" name="86568660_const" type="Const" version="opset1">
			<data element_type="f16" offset="21910" shape="1,58,1,1" size="116"/>
			<output>
				<port id="1" precision="FP16">
					<dim>1</dim>
					<dim>58</dim>
					<dim>1</dim>
					<dim>1</dim>
				</port>
			</output>
		</layer>
		<layer id="256" name="86578661_const" type="Const" version="opset1">
			<data element_type="f16" offset="4702" shape="1,58,1,1" size="116"/>
			<output>
				<port id="1" precision="FP16">
					<dim>1</dim>
					<dim>58</dim>
					<dim>1</dim>
					<dim>1</dim>
				</port>
			</output>
		</layer>
		<layer id="257" name="86588662_const" type="Const" version="opset1">
			<data element_type="f16" offset="21910" shape="1,58,1,1" size="116"/>
			<output>
				<port id="1" precision="FP16">
					<dim>1</dim>
					<dim>58</dim>
					<dim>1</dim>
					<dim>1</dim>
				</port>
			</output>
		</layer>
		<layer id="258" name="482/fq_input_0" type="FakeQuantize" version="opset1">
			<data levels="256"/>
			<input>
				<port id="0">
					<dim>1</dim>
					<dim>58</dim>
					<dim>40</dim>
					<dim>40</dim>
				</port>
				<port id="1">
					<dim>1</dim>
					<dim>58</dim>
					<dim>1</dim>
					<dim>1</dim>
				</port>
				<port id="2">
					<dim>1</dim>
					<dim>58</dim>
					<dim>1</dim>
					<dim>1</dim>
				</port>
				<port id="3">
					<dim>1</dim>
					<dim>58</dim>
					<dim>1</dim>
					<dim>1</dim>
				</port>
				<port id="4">
					<dim>1</dim>
					<dim>58</dim>
					<dim>1</dim>
					<dim>1</dim>
				</port>
			</input>
			<output>
				<port id="5" precision="FP16">
					<dim>1</dim>
					<dim>58</dim>
					<dim>40</dim>
					<dim>40</dim>
				</port>
			</output>
		</layer>
		<layer id="259" name="482/fq_weights_1/Convert_to_float/Cast_021493_const" type="Const" version="opset1">
			<data element_type="u8" offset="22026" shape="58,1,3,3" size="522"/>
			<output>
				<port id="1" precision="U8">
					<dim>58</dim>
					<dim>1</dim>
					<dim>3</dim>
					<dim>3</dim>
				</port>
			</output>
		</layer>
		<layer id="260" name="482/fq_weights_1/Convert_to_float" type="Convert" version="opset1">
			<data destination_type="f16"/>
			<input>
				<port id="0">
					<dim>58</dim>
					<dim>1</dim>
					<dim>3</dim>
					<dim>3</dim>
				</port>
			</input>
			<output>
				<port id="1" precision="FP16">
					<dim>58</dim>
					<dim>1</dim>
					<dim>3</dim>
					<dim>3</dim>
				</port>
			</output>
		</layer>
		<layer id="261" name="482/fq_weights_1/Copy/out_low19101_const" type="Const" version="opset1">
			<data element_type="f16" offset="21560" shape="1" size="2"/>
			<output>
				<port id="1" precision="FP16">
					<dim>1</dim>
				</port>
			</output>
		</layer>
		<layer id="262" name="482/fq_weights_1/Copy/out_high19102_const" type="Const" version="opset1">
			<data element_type="f16" offset="666" shape="1" size="2"/>
			<output>
				<port id="1" precision="FP16">
					<dim>1</dim>
				</port>
			</output>
		</layer>
		<layer id="263" name="86678671_const" type="Const" version="opset1">
			<data element_type="f16" offset="22548" shape="58,1,1,1" size="116"/>
			<output>
				<port id="1" precision="FP16">
					<dim>58</dim>
					<dim>1</dim>
					<dim>1</dim>
					<dim>1</dim>
				</port>
			</output>
		</layer>
		<layer id="264" name="86688672_const" type="Const" version="opset1">
			<data element_type="f16" offset="22664" shape="58,1,1,1" size="116"/>
			<output>
				<port id="1" precision="FP16">
					<dim>58</dim>
					<dim>1</dim>
					<dim>1</dim>
					<dim>1</dim>
				</port>
			</output>
		</layer>
		<layer id="265" name="482/fq_weights_1" type="FakeQuantize" version="opset1">
			<data levels="255"/>
			<input>
				<port id="0">
					<dim>58</dim>
					<dim>1</dim>
					<dim>3</dim>
					<dim>3</dim>
				</port>
				<port id="1">
					<dim>1</dim>
				</port>
				<port id="2">
					<dim>1</dim>
				</port>
				<port id="3">
					<dim>58</dim>
					<dim>1</dim>
					<dim>1</dim>
					<dim>1</dim>
				</port>
				<port id="4">
					<dim>58</dim>
					<dim>1</dim>
					<dim>1</dim>
					<dim>1</dim>
				</port>
			</input>
			<output>
				<port id="5" precision="FP16">
					<dim>58</dim>
					<dim>1</dim>
					<dim>3</dim>
					<dim>3</dim>
				</port>
			</output>
		</layer>
		<layer id="266" name="24374/value24376_const" type="Const" version="opset1">
			<data element_type="i64" offset="5688" shape="5" size="40"/>
			<output>
				<port id="1" precision="I64">
					<dim>5</dim>
				</port>
			</output>
		</layer>
		<layer id="267" name="24374" type="Reshape" version="opset1">
			<data special_zero="True"/>
			<input>
				<port id="0">
					<dim>58</dim>
					<dim>1</dim>
					<dim>3</dim>
					<dim>3</dim>
				</port>
				<port id="1">
					<dim>5</dim>
				</port>
			</input>
			<output>
				<port id="2" precision="FP16">
					<dim>58</dim>
					<dim>1</dim>
					<dim>1</dim>
					<dim>3</dim>
					<dim>3</dim>
				</port>
			</output>
		</layer>
		<layer id="268" name="482" type="GroupConvolution" version="opset1">
			<data dilations="1,1" output_padding="0,0" pads_begin="1,1" pads_end="1,1" strides="1,1"/>
			<input>
				<port id="0">
					<dim>1</dim>
					<dim>58</dim>
					<dim>40</dim>
					<dim>40</dim>
				</port>
				<port id="1">
					<dim>58</dim>
					<dim>1</dim>
					<dim>1</dim>
					<dim>3</dim>
					<dim>3</dim>
				</port>
			</input>
			<output>
				<port id="2" precision="FP16">
					<dim>1</dim>
					<dim>58</dim>
					<dim>40</dim>
					<dim>40</dim>
				</port>
			</output>
		</layer>
		<layer id="269" name="data_add_335653357034864/EltwiseUnsqueeze35486_const2210_const" type="Const" version="opset1">
			<data element_type="f16" offset="22780" shape="1,58,1,1" size="116"/>
			<output>
				<port id="1" precision="FP16">
					<dim>1</dim>
					<dim>58</dim>
					<dim>1</dim>
					<dim>1</dim>
				</port>
			</output>
		</layer>
		<layer id="270" name="483/variance/Fused_Add_" type="Add" version="opset1">
			<input>
				<port id="0">
					<dim>1</dim>
					<dim>58</dim>
					<dim>40</dim>
					<dim>40</dim>
				</port>
				<port id="1">
					<dim>1</dim>
					<dim>58</dim>
					<dim>1</dim>
					<dim>1</dim>
				</port>
			</input>
			<output>
				<port id="2" precision="FP16">
					<dim>1</dim>
					<dim>58</dim>
					<dim>40</dim>
					<dim>40</dim>
				</port>
			</output>
		</layer>
		<layer id="271" name="80658069_const" type="Const" version="opset1">
			<data element_type="f16" offset="22896" shape="1,1,1,1" size="2"/>
			<output>
				<port id="1" precision="FP16">
					<dim>1</dim>
					<dim>1</dim>
					<dim>1</dim>
					<dim>1</dim>
				</port>
			</output>
		</layer>
		<layer id="272" name="80668070_const" type="Const" version="opset1">
			<data element_type="f16" offset="22898" shape="1,1,1,1" size="2"/>
			<output>
				<port id="1" precision="FP16">
					<dim>1</dim>
					<dim>1</dim>
					<dim>1</dim>
					<dim>1</dim>
				</port>
			</output>
		</layer>
		<layer id="273" name="80678071_const" type="Const" version="opset1">
			<data element_type="f16" offset="22896" shape="1,1,1,1" size="2"/>
			<output>
				<port id="1" precision="FP16">
					<dim>1</dim>
					<dim>1</dim>
					<dim>1</dim>
					<dim>1</dim>
				</port>
			</output>
		</layer>
		<layer id="274" name="80688072_const" type="Const" version="opset1">
			<data element_type="f16" offset="22898" shape="1,1,1,1" size="2"/>
			<output>
				<port id="1" precision="FP16">
					<dim>1</dim>
					<dim>1</dim>
					<dim>1</dim>
					<dim>1</dim>
				</port>
			</output>
		</layer>
		<layer id="275" name="484/fq_input_0" type="FakeQuantize" version="opset1">
			<data levels="256"/>
			<input>
				<port id="0">
					<dim>1</dim>
					<dim>58</dim>
					<dim>40</dim>
					<dim>40</dim>
				</port>
				<port id="1">
					<dim>1</dim>
					<dim>1</dim>
					<dim>1</dim>
					<dim>1</dim>
				</port>
				<port id="2">
					<dim>1</dim>
					<dim>1</dim>
					<dim>1</dim>
					<dim>1</dim>
				</port>
				<port id="3">
					<dim>1</dim>
					<dim>1</dim>
					<dim>1</dim>
					<dim>1</dim>
				</port>
				<port id="4">
					<dim>1</dim>
					<dim>1</dim>
					<dim>1</dim>
					<dim>1</dim>
				</port>
			</input>
			<output>
				<port id="5" precision="FP16">
					<dim>1</dim>
					<dim>58</dim>
					<dim>40</dim>
					<dim>40</dim>
				</port>
			</output>
		</layer>
		<layer id="276" name="484/fq_weights_1/Convert_to_float/Cast_022263_const" type="Const" version="opset1">
			<data element_type="u8" offset="22900" shape="58,58,1,1" size="3364"/>
			<output>
				<port id="1" precision="U8">
					<dim>58</dim>
					<dim>58</dim>
					<dim>1</dim>
					<dim>1</dim>
				</port>
			</output>
		</layer>
		<layer id="277" name="484/fq_weights_1/Convert_to_float" type="Convert" version="opset1">
			<data destination_type="f16"/>
			<input>
				<port id="0">
					<dim>58</dim>
					<dim>58</dim>
					<dim>1</dim>
					<dim>1</dim>
				</port>
			</input>
			<output>
				<port id="1" precision="FP16">
					<dim>58</dim>
					<dim>58</dim>
					<dim>1</dim>
					<dim>1</dim>
				</port>
			</output>
		</layer>
		<layer id="278" name="484/fq_weights_1/Copy/out_low18933_const" type="Const" version="opset1">
			<data element_type="f16" offset="21560" shape="1" size="2"/>
			<output>
				<port id="1" precision="FP16">
					<dim>1</dim>
				</port>
			</output>
		</layer>
		<layer id="279" name="484/fq_weights_1/Copy/out_high18934_const" type="Const" version="opset1">
			<data element_type="f16" offset="666" shape="1" size="2"/>
			<output>
				<port id="1" precision="FP16">
					<dim>1</dim>
				</port>
			</output>
		</layer>
		<layer id="280" name="80778081_const" type="Const" version="opset1">
			<data element_type="f16" offset="26264" shape="58,1,1,1" size="116"/>
			<output>
				<port id="1" precision="FP16">
					<dim>58</dim>
					<dim>1</dim>
					<dim>1</dim>
					<dim>1</dim>
				</port>
			</output>
		</layer>
		<layer id="281" name="80788082_const" type="Const" version="opset1">
			<data element_type="f16" offset="26380" shape="58,1,1,1" size="116"/>
			<output>
				<port id="1" precision="FP16">
					<dim>58</dim>
					<dim>1</dim>
					<dim>1</dim>
					<dim>1</dim>
				</port>
			</output>
		</layer>
		<layer id="282" name="484/fq_weights_1" type="FakeQuantize" version="opset1">
			<data levels="255"/>
			<input>
				<port id="0">
					<dim>58</dim>
					<dim>58</dim>
					<dim>1</dim>
					<dim>1</dim>
				</port>
				<port id="1">
					<dim>1</dim>
				</port>
				<port id="2">
					<dim>1</dim>
				</port>
				<port id="3">
					<dim>58</dim>
					<dim>1</dim>
					<dim>1</dim>
					<dim>1</dim>
				</port>
				<port id="4">
					<dim>58</dim>
					<dim>1</dim>
					<dim>1</dim>
					<dim>1</dim>
				</port>
			</input>
			<output>
				<port id="5" precision="FP16">
					<dim>58</dim>
					<dim>58</dim>
					<dim>1</dim>
					<dim>1</dim>
				</port>
			</output>
		</layer>
		<layer id="283" name="484" type="Convolution" version="opset1">
			<data dilations="1,1" output_padding="0,0" pads_begin="0,0" pads_end="0,0" strides="1,1"/>
			<input>
				<port id="0">
					<dim>1</dim>
					<dim>58</dim>
					<dim>40</dim>
					<dim>40</dim>
				</port>
				<port id="1">
					<dim>58</dim>
					<dim>58</dim>
					<dim>1</dim>
					<dim>1</dim>
				</port>
			</input>
			<output>
				<port id="2" precision="FP16">
					<dim>1</dim>
					<dim>58</dim>
					<dim>40</dim>
					<dim>40</dim>
				</port>
			</output>
		</layer>
		<layer id="284" name="data_add_335733357834866/EltwiseUnsqueeze35494_const2214_const" type="Const" version="opset1">
			<data element_type="f16" offset="26496" shape="1,58,1,1" size="116"/>
			<output>
				<port id="1" precision="FP16">
					<dim>1</dim>
					<dim>58</dim>
					<dim>1</dim>
					<dim>1</dim>
				</port>
			</output>
		</layer>
		<layer id="285" name="485/variance/Fused_Add_" type="Add" version="opset1">
			<input>
				<port id="0">
					<dim>1</dim>
					<dim>58</dim>
					<dim>40</dim>
					<dim>40</dim>
				</port>
				<port id="1">
					<dim>1</dim>
					<dim>58</dim>
					<dim>1</dim>
					<dim>1</dim>
				</port>
			</input>
			<output>
				<port id="2" precision="FP16">
					<dim>1</dim>
					<dim>58</dim>
					<dim>40</dim>
					<dim>40</dim>
				</port>
			</output>
		</layer>
		<layer id="286" name="486" type="ReLU" version="opset1">
			<input>
				<port id="0">
					<dim>1</dim>
					<dim>58</dim>
					<dim>40</dim>
					<dim>40</dim>
				</port>
			</input>
			<output>
				<port id="1" precision="FP16">
					<dim>1</dim>
					<dim>58</dim>
					<dim>40</dim>
					<dim>40</dim>
				</port>
			</output>
		</layer>
		<layer id="287" name="487" type="Concat" version="opset1">
			<data axis="1"/>
			<input>
				<port id="0">
					<dim>1</dim>
					<dim>58</dim>
					<dim>40</dim>
					<dim>40</dim>
				</port>
				<port id="1">
					<dim>1</dim>
					<dim>58</dim>
					<dim>40</dim>
					<dim>40</dim>
				</port>
			</input>
			<output>
				<port id="2" precision="FP16">
					<dim>1</dim>
					<dim>116</dim>
					<dim>40</dim>
					<dim>40</dim>
				</port>
			</output>
		</layer>
		<layer id="288" name="489" type="ShapeOf" version="opset3">
			<data output_type="i64"/>
			<input>
				<port id="0">
					<dim>1</dim>
					<dim>116</dim>
					<dim>40</dim>
					<dim>40</dim>
				</port>
			</input>
			<output>
				<port id="1" precision="I64">
					<dim>4</dim>
				</port>
			</output>
		</layer>
		<layer id="289" name="4902610/Cast_121617_const" type="Const" version="opset1">
			<data element_type="i32" offset="9560" shape="" size="4"/>
			<output>
				<port id="1" precision="I32"/>
			</output>
		</layer>
		<layer id="290" name="4902610/Cast_221619_const" type="Const" version="opset1">
			<data element_type="i64" offset="9564" shape="" size="8"/>
			<output>
				<port id="1" precision="I64"/>
			</output>
		</layer>
		<layer id="291" name="4902610" type="Gather" version="opset1">
			<input>
				<port id="0">
					<dim>4</dim>
				</port>
				<port id="1"/>
				<port id="2"/>
			</input>
			<output>
				<port id="3" precision="I64"/>
			</output>
		</layer>
		<layer id="292" name="503/Dims/Output_0/Data__const2222_const" type="Const" version="opset1">
			<data element_type="i64" offset="9564" shape="1" size="8"/>
			<output>
				<port id="1" precision="I64">
					<dim>1</dim>
				</port>
			</output>
		</layer>
		<layer id="293" name="503/Unsqueeze" type="Unsqueeze" version="opset1">
			<input>
				<port id="0"/>
				<port id="1">
					<dim>1</dim>
				</port>
			</input>
			<output>
				<port id="2" precision="I64">
					<dim>1</dim>
				</port>
			</output>
		</layer>
		<layer id="294" name="504/Unsqueeze/Output_0/Data__const2224_const" type="Const" version="opset1">
			<data element_type="i64" offset="9572" shape="1" size="8"/>
			<output>
				<port id="1" precision="I64">
					<dim>1</dim>
				</port>
			</output>
		</layer>
		<layer id="295" name="492" type="ShapeOf" version="opset3">
			<data output_type="i64"/>
			<input>
				<port id="0">
					<dim>1</dim>
					<dim>116</dim>
					<dim>40</dim>
					<dim>40</dim>
				</port>
			</input>
			<output>
				<port id="1" precision="I64">
					<dim>4</dim>
				</port>
			</output>
		</layer>
		<layer id="296" name="4932344/Cast_121705_const" type="Const" version="opset1">
			<data element_type="i32" offset="9580" shape="" size="4"/>
			<output>
				<port id="1" precision="I32"/>
			</output>
		</layer>
		<layer id="297" name="4932344/Cast_221707_const" type="Const" version="opset1">
			<data element_type="i64" offset="9564" shape="" size="8"/>
			<output>
				<port id="1" precision="I64"/>
			</output>
		</layer>
		<layer id="298" name="4932344" type="Gather" version="opset1">
			<input>
				<port id="0">
					<dim>4</dim>
				</port>
				<port id="1"/>
				<port id="2"/>
			</input>
			<output>
				<port id="3" precision="I64"/>
			</output>
		</layer>
		<layer id="299" name="500/Output_0/Data__const2229_const" type="Const" version="opset1">
			<data element_type="i64" offset="9572" shape="" size="8"/>
			<output>
				<port id="1" precision="I64"/>
			</output>
		</layer>
		<layer id="300" name="501" type="Divide" version="opset1">
			<input>
				<port id="0"/>
				<port id="1"/>
			</input>
			<output>
				<port id="2" precision="I64"/>
			</output>
		</layer>
		<layer id="301" name="505/Dims/Output_0/Data__const2231_const" type="Const" version="opset1">
			<data element_type="i64" offset="9564" shape="1" size="8"/>
			<output>
				<port id="1" precision="I64">
					<dim>1</dim>
				</port>
			</output>
		</layer>
		<layer id="302" name="505/Unsqueeze" type="Unsqueeze" version="opset1">
			<input>
				<port id="0"/>
				<port id="1">
					<dim>1</dim>
				</port>
			</input>
			<output>
				<port id="2" precision="I64">
					<dim>1</dim>
				</port>
			</output>
		</layer>
		<layer id="303" name="495" type="ShapeOf" version="opset3">
			<data output_type="i64"/>
			<input>
				<port id="0">
					<dim>1</dim>
					<dim>116</dim>
					<dim>40</dim>
					<dim>40</dim>
				</port>
			</input>
			<output>
				<port id="1" precision="I64">
					<dim>4</dim>
				</port>
			</output>
		</layer>
		<layer id="304" name="4962366/Cast_121905_const" type="Const" version="opset1">
			<data element_type="i32" offset="9584" shape="" size="4"/>
			<output>
				<port id="1" precision="I32"/>
			</output>
		</layer>
		<layer id="305" name="4962366/Cast_221907_const" type="Const" version="opset1">
			<data element_type="i64" offset="9564" shape="" size="8"/>
			<output>
				<port id="1" precision="I64"/>
			</output>
		</layer>
		<layer id="306" name="4962366" type="Gather" version="opset1">
			<input>
				<port id="0">
					<dim>4</dim>
				</port>
				<port id="1"/>
				<port id="2"/>
			</input>
			<output>
				<port id="3" precision="I64"/>
			</output>
		</layer>
		<layer id="307" name="506/Dims/Output_0/Data__const2237_const" type="Const" version="opset1">
			<data element_type="i64" offset="9564" shape="1" size="8"/>
			<output>
				<port id="1" precision="I64">
					<dim>1</dim>
				</port>
			</output>
		</layer>
		<layer id="308" name="506/Unsqueeze" type="Unsqueeze" version="opset1">
			<input>
				<port id="0"/>
				<port id="1">
					<dim>1</dim>
				</port>
			</input>
			<output>
				<port id="2" precision="I64">
					<dim>1</dim>
				</port>
			</output>
		</layer>
		<layer id="309" name="498" type="ShapeOf" version="opset3">
			<data output_type="i64"/>
			<input>
				<port id="0">
					<dim>1</dim>
					<dim>116</dim>
					<dim>40</dim>
					<dim>40</dim>
				</port>
			</input>
			<output>
				<port id="1" precision="I64">
					<dim>4</dim>
				</port>
			</output>
		</layer>
		<layer id="310" name="4992396/Cast_122001_const" type="Const" version="opset1">
			<data element_type="i32" offset="9588" shape="" size="4"/>
			<output>
				<port id="1" precision="I32"/>
			</output>
		</layer>
		<layer id="311" name="4992396/Cast_222003_const" type="Const" version="opset1">
			<data element_type="i64" offset="9564" shape="" size="8"/>
			<output>
				<port id="1" precision="I64"/>
			</output>
		</layer>
		<layer id="312" name="4992396" type="Gather" version="opset1">
			<input>
				<port id="0">
					<dim>4</dim>
				</port>
				<port id="1"/>
				<port id="2"/>
			</input>
			<output>
				<port id="3" precision="I64"/>
			</output>
		</layer>
		<layer id="313" name="507/Dims/Output_0/Data__const2243_const" type="Const" version="opset1">
			<data element_type="i64" offset="9564" shape="1" size="8"/>
			<output>
				<port id="1" precision="I64">
					<dim>1</dim>
				</port>
			</output>
		</layer>
		<layer id="314" name="507/Unsqueeze" type="Unsqueeze" version="opset1">
			<input>
				<port id="0"/>
				<port id="1">
					<dim>1</dim>
				</port>
			</input>
			<output>
				<port id="2" precision="I64">
					<dim>1</dim>
				</port>
			</output>
		</layer>
		<layer id="315" name="508" type="Concat" version="opset1">
			<data axis="0"/>
			<input>
				<port id="0">
					<dim>1</dim>
				</port>
				<port id="1">
					<dim>1</dim>
				</port>
				<port id="2">
					<dim>1</dim>
				</port>
				<port id="3">
					<dim>1</dim>
				</port>
				<port id="4">
					<dim>1</dim>
				</port>
			</input>
			<output>
				<port id="5" precision="I64">
					<dim>5</dim>
				</port>
			</output>
		</layer>
		<layer id="316" name="509" type="Reshape" version="opset1">
			<data special_zero="True"/>
			<input>
				<port id="0">
					<dim>1</dim>
					<dim>116</dim>
					<dim>40</dim>
					<dim>40</dim>
				</port>
				<port id="1">
					<dim>5</dim>
				</port>
			</input>
			<output>
				<port id="2" precision="FP16">
					<dim>1</dim>
					<dim>2</dim>
					<dim>58</dim>
					<dim>40</dim>
					<dim>40</dim>
				</port>
			</output>
		</layer>
		<layer id="317" name="510/Cast_121949_const" type="Const" version="opset1">
			<data element_type="i64" offset="9592" shape="5" size="40"/>
			<output>
				<port id="1" precision="I64">
					<dim>5</dim>
				</port>
			</output>
		</layer>
		<layer id="318" name="510" type="Transpose" version="opset1">
			<input>
				<port id="0">
					<dim>1</dim>
					<dim>2</dim>
					<dim>58</dim>
					<dim>40</dim>
					<dim>40</dim>
				</port>
				<port id="1">
					<dim>5</dim>
				</port>
			</input>
			<output>
				<port id="2" precision="FP16">
					<dim>1</dim>
					<dim>58</dim>
					<dim>2</dim>
					<dim>40</dim>
					<dim>40</dim>
				</port>
			</output>
		</layer>
		<layer id="319" name="511/Dims/Output_0/Data__const2249_const" type="Const" version="opset1">
			<data element_type="i64" offset="9564" shape="1" size="8"/>
			<output>
				<port id="1" precision="I64">
					<dim>1</dim>
				</port>
			</output>
		</layer>
		<layer id="320" name="511/Unsqueeze" type="Unsqueeze" version="opset1">
			<input>
				<port id="0"/>
				<port id="1">
					<dim>1</dim>
				</port>
			</input>
			<output>
				<port id="2" precision="I64">
					<dim>1</dim>
				</port>
			</output>
		</layer>
		<layer id="321" name="512/Dims/Output_0/Data__const2251_const" type="Const" version="opset1">
			<data element_type="i64" offset="9564" shape="1" size="8"/>
			<output>
				<port id="1" precision="I64">
					<dim>1</dim>
				</port>
			</output>
		</layer>
		<layer id="322" name="512/Unsqueeze" type="Unsqueeze" version="opset1">
			<input>
				<port id="0"/>
				<port id="1">
					<dim>1</dim>
				</port>
			</input>
			<output>
				<port id="2" precision="I64">
					<dim>1</dim>
				</port>
			</output>
		</layer>
		<layer id="323" name="513/Dims/Output_0/Data__const2253_const" type="Const" version="opset1">
			<data element_type="i64" offset="9564" shape="1" size="8"/>
			<output>
				<port id="1" precision="I64">
					<dim>1</dim>
				</port>
			</output>
		</layer>
		<layer id="324" name="513/Unsqueeze" type="Unsqueeze" version="opset1">
			<input>
				<port id="0"/>
				<port id="1">
					<dim>1</dim>
				</port>
			</input>
			<output>
				<port id="2" precision="I64">
					<dim>1</dim>
				</port>
			</output>
		</layer>
		<layer id="325" name="514/Dims/Output_0/Data__const2255_const" type="Const" version="opset1">
			<data element_type="i64" offset="9564" shape="1" size="8"/>
			<output>
				<port id="1" precision="I64">
					<dim>1</dim>
				</port>
			</output>
		</layer>
		<layer id="326" name="514/Unsqueeze" type="Unsqueeze" version="opset1">
			<input>
				<port id="0"/>
				<port id="1">
					<dim>1</dim>
				</port>
			</input>
			<output>
				<port id="2" precision="I64">
					<dim>1</dim>
				</port>
			</output>
		</layer>
		<layer id="327" name="515" type="Concat" version="opset1">
			<data axis="0"/>
			<input>
				<port id="0">
					<dim>1</dim>
				</port>
				<port id="1">
					<dim>1</dim>
				</port>
				<port id="2">
					<dim>1</dim>
				</port>
				<port id="3">
					<dim>1</dim>
				</port>
			</input>
			<output>
				<port id="4" precision="I64">
					<dim>4</dim>
				</port>
			</output>
		</layer>
		<layer id="328" name="516" type="Reshape" version="opset1">
			<data special_zero="True"/>
			<input>
				<port id="0">
					<dim>1</dim>
					<dim>58</dim>
					<dim>2</dim>
					<dim>40</dim>
					<dim>40</dim>
				</port>
				<port id="1">
					<dim>4</dim>
				</port>
			</input>
			<output>
				<port id="2" precision="FP16">
					<dim>1</dim>
					<dim>116</dim>
					<dim>40</dim>
					<dim>40</dim>
				</port>
			</output>
		</layer>
		<layer id="329" name="517/VariadicSplit_input_port_1/value/Output_0/Data__const2259_const" type="Const" version="opset1">
			<data element_type="i64" offset="9632" shape="" size="8"/>
			<output>
				<port id="1" precision="I64"/>
			</output>
		</layer>
		<layer id="330" name="517/VariadicSplit_input_port_2/value/Output_0/Data__const2260_const" type="Const" version="opset1">
			<data element_type="i64" offset="9640" shape="2" size="16"/>
			<output>
				<port id="1" precision="I64">
					<dim>2</dim>
				</port>
			</output>
		</layer>
		<layer id="331" name="517/VariadicSplit" type="VariadicSplit" version="opset1">
			<input>
				<port id="0">
					<dim>1</dim>
					<dim>116</dim>
					<dim>40</dim>
					<dim>40</dim>
				</port>
				<port id="1"/>
				<port id="2">
					<dim>2</dim>
				</port>
			</input>
			<output>
				<port id="3" precision="FP16">
					<dim>1</dim>
					<dim>58</dim>
					<dim>40</dim>
					<dim>40</dim>
				</port>
				<port id="4" precision="FP16">
					<dim>1</dim>
					<dim>58</dim>
					<dim>40</dim>
					<dim>40</dim>
				</port>
			</output>
		</layer>
		<layer id="332" name="1197711981_const" type="Const" version="opset1">
			<data element_type="f16" offset="26612" shape="1,1,1,1" size="2"/>
			<output>
				<port id="1" precision="FP16">
					<dim>1</dim>
					<dim>1</dim>
					<dim>1</dim>
					<dim>1</dim>
				</port>
			</output>
		</layer>
		<layer id="333" name="1197811982_const" type="Const" version="opset1">
			<data element_type="f16" offset="26614" shape="1,1,1,1" size="2"/>
			<output>
				<port id="1" precision="FP16">
					<dim>1</dim>
					<dim>1</dim>
					<dim>1</dim>
					<dim>1</dim>
				</port>
			</output>
		</layer>
		<layer id="334" name="1197911983_const" type="Const" version="opset1">
			<data element_type="f16" offset="26612" shape="1,1,1,1" size="2"/>
			<output>
				<port id="1" precision="FP16">
					<dim>1</dim>
					<dim>1</dim>
					<dim>1</dim>
					<dim>1</dim>
				</port>
			</output>
		</layer>
		<layer id="335" name="1198011984_const" type="Const" version="opset1">
			<data element_type="f16" offset="26614" shape="1,1,1,1" size="2"/>
			<output>
				<port id="1" precision="FP16">
					<dim>1</dim>
					<dim>1</dim>
					<dim>1</dim>
					<dim>1</dim>
				</port>
			</output>
		</layer>
		<layer id="336" name="527/fq_input_0" type="FakeQuantize" version="opset1">
			<data levels="256"/>
			<input>
				<port id="0">
					<dim>1</dim>
					<dim>58</dim>
					<dim>40</dim>
					<dim>40</dim>
				</port>
				<port id="1">
					<dim>1</dim>
					<dim>1</dim>
					<dim>1</dim>
					<dim>1</dim>
				</port>
				<port id="2">
					<dim>1</dim>
					<dim>1</dim>
					<dim>1</dim>
					<dim>1</dim>
				</port>
				<port id="3">
					<dim>1</dim>
					<dim>1</dim>
					<dim>1</dim>
					<dim>1</dim>
				</port>
				<port id="4">
					<dim>1</dim>
					<dim>1</dim>
					<dim>1</dim>
					<dim>1</dim>
				</port>
			</input>
			<output>
				<port id="5" precision="FP16">
					<dim>1</dim>
					<dim>58</dim>
					<dim>40</dim>
					<dim>40</dim>
				</port>
			</output>
		</layer>
		<layer id="337" name="77757779_const" type="Const" version="opset1">
			<data element_type="f16" offset="26612" shape="1,1,1,1" size="2"/>
			<output>
				<port id="1" precision="FP16">
					<dim>1</dim>
					<dim>1</dim>
					<dim>1</dim>
					<dim>1</dim>
				</port>
			</output>
		</layer>
		<layer id="338" name="77767780_const" type="Const" version="opset1">
			<data element_type="f16" offset="26616" shape="1,1,1,1" size="2"/>
			<output>
				<port id="1" precision="FP16">
					<dim>1</dim>
					<dim>1</dim>
					<dim>1</dim>
					<dim>1</dim>
				</port>
			</output>
		</layer>
		<layer id="339" name="77777781_const" type="Const" version="opset1">
			<data element_type="f16" offset="26612" shape="1,1,1,1" size="2"/>
			<output>
				<port id="1" precision="FP16">
					<dim>1</dim>
					<dim>1</dim>
					<dim>1</dim>
					<dim>1</dim>
				</port>
			</output>
		</layer>
		<layer id="340" name="77787782_const" type="Const" version="opset1">
			<data element_type="f16" offset="26616" shape="1,1,1,1" size="2"/>
			<output>
				<port id="1" precision="FP16">
					<dim>1</dim>
					<dim>1</dim>
					<dim>1</dim>
					<dim>1</dim>
				</port>
			</output>
		</layer>
		<layer id="341" name="519/fq_input_0" type="FakeQuantize" version="opset1">
			<data levels="256"/>
			<input>
				<port id="0">
					<dim>1</dim>
					<dim>58</dim>
					<dim>40</dim>
					<dim>40</dim>
				</port>
				<port id="1">
					<dim>1</dim>
					<dim>1</dim>
					<dim>1</dim>
					<dim>1</dim>
				</port>
				<port id="2">
					<dim>1</dim>
					<dim>1</dim>
					<dim>1</dim>
					<dim>1</dim>
				</port>
				<port id="3">
					<dim>1</dim>
					<dim>1</dim>
					<dim>1</dim>
					<dim>1</dim>
				</port>
				<port id="4">
					<dim>1</dim>
					<dim>1</dim>
					<dim>1</dim>
					<dim>1</dim>
				</port>
			</input>
			<output>
				<port id="5" precision="FP16">
					<dim>1</dim>
					<dim>58</dim>
					<dim>40</dim>
					<dim>40</dim>
				</port>
			</output>
		</layer>
		<layer id="342" name="519/fq_weights_1/Convert_to_float/Cast_021529_const" type="Const" version="opset1">
			<data element_type="u8" offset="26618" shape="58,58,1,1" size="3364"/>
			<output>
				<port id="1" precision="U8">
					<dim>58</dim>
					<dim>58</dim>
					<dim>1</dim>
					<dim>1</dim>
				</port>
			</output>
		</layer>
		<layer id="343" name="519/fq_weights_1/Convert_to_float" type="Convert" version="opset1">
			<data destination_type="f16"/>
			<input>
				<port id="0">
					<dim>58</dim>
					<dim>58</dim>
					<dim>1</dim>
					<dim>1</dim>
				</port>
			</input>
			<output>
				<port id="1" precision="FP16">
					<dim>58</dim>
					<dim>58</dim>
					<dim>1</dim>
					<dim>1</dim>
				</port>
			</output>
		</layer>
		<layer id="344" name="519/fq_weights_1/Copy/out_low18525_const" type="Const" version="opset1">
			<data element_type="f16" offset="29982" shape="1" size="2"/>
			<output>
				<port id="1" precision="FP16">
					<dim>1</dim>
				</port>
			</output>
		</layer>
		<layer id="345" name="519/fq_weights_1/Copy/out_high18526_const" type="Const" version="opset1">
			<data element_type="f16" offset="666" shape="1" size="2"/>
			<output>
				<port id="1" precision="FP16">
					<dim>1</dim>
				</port>
			</output>
		</layer>
		<layer id="346" name="77877791_const" type="Const" version="opset1">
			<data element_type="f16" offset="29984" shape="58,1,1,1" size="116"/>
			<output>
				<port id="1" precision="FP16">
					<dim>58</dim>
					<dim>1</dim>
					<dim>1</dim>
					<dim>1</dim>
				</port>
			</output>
		</layer>
		<layer id="347" name="77887792_const" type="Const" version="opset1">
			<data element_type="f16" offset="30100" shape="58,1,1,1" size="116"/>
			<output>
				<port id="1" precision="FP16">
					<dim>58</dim>
					<dim>1</dim>
					<dim>1</dim>
					<dim>1</dim>
				</port>
			</output>
		</layer>
		<layer id="348" name="519/fq_weights_1" type="FakeQuantize" version="opset1">
			<data levels="255"/>
			<input>
				<port id="0">
					<dim>58</dim>
					<dim>58</dim>
					<dim>1</dim>
					<dim>1</dim>
				</port>
				<port id="1">
					<dim>1</dim>
				</port>
				<port id="2">
					<dim>1</dim>
				</port>
				<port id="3">
					<dim>58</dim>
					<dim>1</dim>
					<dim>1</dim>
					<dim>1</dim>
				</port>
				<port id="4">
					<dim>58</dim>
					<dim>1</dim>
					<dim>1</dim>
					<dim>1</dim>
				</port>
			</input>
			<output>
				<port id="5" precision="FP16">
					<dim>58</dim>
					<dim>58</dim>
					<dim>1</dim>
					<dim>1</dim>
				</port>
			</output>
		</layer>
		<layer id="349" name="519" type="Convolution" version="opset1">
			<data dilations="1,1" output_padding="0,0" pads_begin="0,0" pads_end="0,0" strides="1,1"/>
			<input>
				<port id="0">
					<dim>1</dim>
					<dim>58</dim>
					<dim>40</dim>
					<dim>40</dim>
				</port>
				<port id="1">
					<dim>58</dim>
					<dim>58</dim>
					<dim>1</dim>
					<dim>1</dim>
				</port>
			</input>
			<output>
				<port id="2" precision="FP16">
					<dim>1</dim>
					<dim>58</dim>
					<dim>40</dim>
					<dim>40</dim>
				</port>
			</output>
		</layer>
		<layer id="350" name="data_add_335813358634868/EltwiseUnsqueeze35502_const2265_const" type="Const" version="opset1">
			<data element_type="f16" offset="30216" shape="1,58,1,1" size="116"/>
			<output>
				<port id="1" precision="FP16">
					<dim>1</dim>
					<dim>58</dim>
					<dim>1</dim>
					<dim>1</dim>
				</port>
			</output>
		</layer>
		<layer id="351" name="520/variance/Fused_Add_" type="Add" version="opset1">
			<input>
				<port id="0">
					<dim>1</dim>
					<dim>58</dim>
					<dim>40</dim>
					<dim>40</dim>
				</port>
				<port id="1">
					<dim>1</dim>
					<dim>58</dim>
					<dim>1</dim>
					<dim>1</dim>
				</port>
			</input>
			<output>
				<port id="2" precision="FP16">
					<dim>1</dim>
					<dim>58</dim>
					<dim>40</dim>
					<dim>40</dim>
				</port>
			</output>
		</layer>
		<layer id="352" name="521" type="ReLU" version="opset1">
			<input>
				<port id="0">
					<dim>1</dim>
					<dim>58</dim>
					<dim>40</dim>
					<dim>40</dim>
				</port>
			</input>
			<output>
				<port id="1" precision="FP16">
					<dim>1</dim>
					<dim>58</dim>
					<dim>40</dim>
					<dim>40</dim>
				</port>
			</output>
		</layer>
		<layer id="353" name="83358339_const" type="Const" version="opset1">
			<data element_type="f16" offset="4702" shape="1,58,1,1" size="116"/>
			<output>
				<port id="1" precision="FP16">
					<dim>1</dim>
					<dim>58</dim>
					<dim>1</dim>
					<dim>1</dim>
				</port>
			</output>
		</layer>
		<layer id="354" name="83368340_const" type="Const" version="opset1">
			<data element_type="f16" offset="30332" shape="1,58,1,1" size="116"/>
			<output>
				<port id="1" precision="FP16">
					<dim>1</dim>
					<dim>58</dim>
					<dim>1</dim>
					<dim>1</dim>
				</port>
			</output>
		</layer>
		<layer id="355" name="83378341_const" type="Const" version="opset1">
			<data element_type="f16" offset="4702" shape="1,58,1,1" size="116"/>
			<output>
				<port id="1" precision="FP16">
					<dim>1</dim>
					<dim>58</dim>
					<dim>1</dim>
					<dim>1</dim>
				</port>
			</output>
		</layer>
		<layer id="356" name="83388342_const" type="Const" version="opset1">
			<data element_type="f16" offset="30332" shape="1,58,1,1" size="116"/>
			<output>
				<port id="1" precision="FP16">
					<dim>1</dim>
					<dim>58</dim>
					<dim>1</dim>
					<dim>1</dim>
				</port>
			</output>
		</layer>
		<layer id="357" name="522/fq_input_0" type="FakeQuantize" version="opset1">
			<data levels="256"/>
			<input>
				<port id="0">
					<dim>1</dim>
					<dim>58</dim>
					<dim>40</dim>
					<dim>40</dim>
				</port>
				<port id="1">
					<dim>1</dim>
					<dim>58</dim>
					<dim>1</dim>
					<dim>1</dim>
				</port>
				<port id="2">
					<dim>1</dim>
					<dim>58</dim>
					<dim>1</dim>
					<dim>1</dim>
				</port>
				<port id="3">
					<dim>1</dim>
					<dim>58</dim>
					<dim>1</dim>
					<dim>1</dim>
				</port>
				<port id="4">
					<dim>1</dim>
					<dim>58</dim>
					<dim>1</dim>
					<dim>1</dim>
				</port>
			</input>
			<output>
				<port id="5" precision="FP16">
					<dim>1</dim>
					<dim>58</dim>
					<dim>40</dim>
					<dim>40</dim>
				</port>
			</output>
		</layer>
		<layer id="358" name="522/fq_weights_1/Convert_to_float/Cast_022131_const" type="Const" version="opset1">
			<data element_type="u8" offset="30448" shape="58,1,3,3" size="522"/>
			<output>
				<port id="1" precision="U8">
					<dim>58</dim>
					<dim>1</dim>
					<dim>3</dim>
					<dim>3</dim>
				</port>
			</output>
		</layer>
		<layer id="359" name="522/fq_weights_1/Convert_to_float" type="Convert" version="opset1">
			<data destination_type="f16"/>
			<input>
				<port id="0">
					<dim>58</dim>
					<dim>1</dim>
					<dim>3</dim>
					<dim>3</dim>
				</port>
			</input>
			<output>
				<port id="1" precision="FP16">
					<dim>58</dim>
					<dim>1</dim>
					<dim>3</dim>
					<dim>3</dim>
				</port>
			</output>
		</layer>
		<layer id="360" name="522/fq_weights_1/Copy/out_low19197_const" type="Const" version="opset1">
			<data element_type="f16" offset="29982" shape="1" size="2"/>
			<output>
				<port id="1" precision="FP16">
					<dim>1</dim>
				</port>
			</output>
		</layer>
		<layer id="361" name="522/fq_weights_1/Copy/out_high19198_const" type="Const" version="opset1">
			<data element_type="f16" offset="666" shape="1" size="2"/>
			<output>
				<port id="1" precision="FP16">
					<dim>1</dim>
				</port>
			</output>
		</layer>
		<layer id="362" name="83478351_const" type="Const" version="opset1">
			<data element_type="f16" offset="30970" shape="58,1,1,1" size="116"/>
			<output>
				<port id="1" precision="FP16">
					<dim>58</dim>
					<dim>1</dim>
					<dim>1</dim>
					<dim>1</dim>
				</port>
			</output>
		</layer>
		<layer id="363" name="83488352_const" type="Const" version="opset1">
			<data element_type="f16" offset="31086" shape="58,1,1,1" size="116"/>
			<output>
				<port id="1" precision="FP16">
					<dim>58</dim>
					<dim>1</dim>
					<dim>1</dim>
					<dim>1</dim>
				</port>
			</output>
		</layer>
		<layer id="364" name="522/fq_weights_1" type="FakeQuantize" version="opset1">
			<data levels="255"/>
			<input>
				<port id="0">
					<dim>58</dim>
					<dim>1</dim>
					<dim>3</dim>
					<dim>3</dim>
				</port>
				<port id="1">
					<dim>1</dim>
				</port>
				<port id="2">
					<dim>1</dim>
				</port>
				<port id="3">
					<dim>58</dim>
					<dim>1</dim>
					<dim>1</dim>
					<dim>1</dim>
				</port>
				<port id="4">
					<dim>58</dim>
					<dim>1</dim>
					<dim>1</dim>
					<dim>1</dim>
				</port>
			</input>
			<output>
				<port id="5" precision="FP16">
					<dim>58</dim>
					<dim>1</dim>
					<dim>3</dim>
					<dim>3</dim>
				</port>
			</output>
		</layer>
		<layer id="365" name="24330/value24332_const" type="Const" version="opset1">
			<data element_type="i64" offset="5688" shape="5" size="40"/>
			<output>
				<port id="1" precision="I64">
					<dim>5</dim>
				</port>
			</output>
		</layer>
		<layer id="366" name="24330" type="Reshape" version="opset1">
			<data special_zero="True"/>
			<input>
				<port id="0">
					<dim>58</dim>
					<dim>1</dim>
					<dim>3</dim>
					<dim>3</dim>
				</port>
				<port id="1">
					<dim>5</dim>
				</port>
			</input>
			<output>
				<port id="2" precision="FP16">
					<dim>58</dim>
					<dim>1</dim>
					<dim>1</dim>
					<dim>3</dim>
					<dim>3</dim>
				</port>
			</output>
		</layer>
		<layer id="367" name="522" type="GroupConvolution" version="opset1">
			<data dilations="1,1" output_padding="0,0" pads_begin="1,1" pads_end="1,1" strides="1,1"/>
			<input>
				<port id="0">
					<dim>1</dim>
					<dim>58</dim>
					<dim>40</dim>
					<dim>40</dim>
				</port>
				<port id="1">
					<dim>58</dim>
					<dim>1</dim>
					<dim>1</dim>
					<dim>3</dim>
					<dim>3</dim>
				</port>
			</input>
			<output>
				<port id="2" precision="FP16">
					<dim>1</dim>
					<dim>58</dim>
					<dim>40</dim>
					<dim>40</dim>
				</port>
			</output>
		</layer>
		<layer id="368" name="data_add_335893359434870/EltwiseUnsqueeze35510_const2270_const" type="Const" version="opset1">
			<data element_type="f16" offset="31202" shape="1,58,1,1" size="116"/>
			<output>
				<port id="1" precision="FP16">
					<dim>1</dim>
					<dim>58</dim>
					<dim>1</dim>
					<dim>1</dim>
				</port>
			</output>
		</layer>
		<layer id="369" name="523/variance/Fused_Add_" type="Add" version="opset1">
			<input>
				<port id="0">
					<dim>1</dim>
					<dim>58</dim>
					<dim>40</dim>
					<dim>40</dim>
				</port>
				<port id="1">
					<dim>1</dim>
					<dim>58</dim>
					<dim>1</dim>
					<dim>1</dim>
				</port>
			</input>
			<output>
				<port id="2" precision="FP16">
					<dim>1</dim>
					<dim>58</dim>
					<dim>40</dim>
					<dim>40</dim>
				</port>
			</output>
		</layer>
		<layer id="370" name="85658569_const" type="Const" version="opset1">
			<data element_type="f16" offset="31318" shape="1,1,1,1" size="2"/>
			<output>
				<port id="1" precision="FP16">
					<dim>1</dim>
					<dim>1</dim>
					<dim>1</dim>
					<dim>1</dim>
				</port>
			</output>
		</layer>
		<layer id="371" name="85668570_const" type="Const" version="opset1">
			<data element_type="f16" offset="31320" shape="1,1,1,1" size="2"/>
			<output>
				<port id="1" precision="FP16">
					<dim>1</dim>
					<dim>1</dim>
					<dim>1</dim>
					<dim>1</dim>
				</port>
			</output>
		</layer>
		<layer id="372" name="85678571_const" type="Const" version="opset1">
			<data element_type="f16" offset="31318" shape="1,1,1,1" size="2"/>
			<output>
				<port id="1" precision="FP16">
					<dim>1</dim>
					<dim>1</dim>
					<dim>1</dim>
					<dim>1</dim>
				</port>
			</output>
		</layer>
		<layer id="373" name="85688572_const" type="Const" version="opset1">
			<data element_type="f16" offset="31320" shape="1,1,1,1" size="2"/>
			<output>
				<port id="1" precision="FP16">
					<dim>1</dim>
					<dim>1</dim>
					<dim>1</dim>
					<dim>1</dim>
				</port>
			</output>
		</layer>
		<layer id="374" name="524/fq_input_0" type="FakeQuantize" version="opset1">
			<data levels="256"/>
			<input>
				<port id="0">
					<dim>1</dim>
					<dim>58</dim>
					<dim>40</dim>
					<dim>40</dim>
				</port>
				<port id="1">
					<dim>1</dim>
					<dim>1</dim>
					<dim>1</dim>
					<dim>1</dim>
				</port>
				<port id="2">
					<dim>1</dim>
					<dim>1</dim>
					<dim>1</dim>
					<dim>1</dim>
				</port>
				<port id="3">
					<dim>1</dim>
					<dim>1</dim>
					<dim>1</dim>
					<dim>1</dim>
				</port>
				<port id="4">
					<dim>1</dim>
					<dim>1</dim>
					<dim>1</dim>
					<dim>1</dim>
				</port>
			</input>
			<output>
				<port id="5" precision="FP16">
					<dim>1</dim>
					<dim>58</dim>
					<dim>40</dim>
					<dim>40</dim>
				</port>
			</output>
		</layer>
		<layer id="375" name="524/fq_weights_1/Convert_to_float/Cast_021831_const" type="Const" version="opset1">
			<data element_type="u8" offset="31322" shape="58,58,1,1" size="3364"/>
			<output>
				<port id="1" precision="U8">
					<dim>58</dim>
					<dim>58</dim>
					<dim>1</dim>
					<dim>1</dim>
				</port>
			</output>
		</layer>
		<layer id="376" name="524/fq_weights_1/Convert_to_float" type="Convert" version="opset1">
			<data destination_type="f16"/>
			<input>
				<port id="0">
					<dim>58</dim>
					<dim>58</dim>
					<dim>1</dim>
					<dim>1</dim>
				</port>
			</input>
			<output>
				<port id="1" precision="FP16">
					<dim>58</dim>
					<dim>58</dim>
					<dim>1</dim>
					<dim>1</dim>
				</port>
			</output>
		</layer>
		<layer id="377" name="524/fq_weights_1/Copy/out_low18501_const" type="Const" version="opset1">
			<data element_type="f16" offset="29982" shape="1" size="2"/>
			<output>
				<port id="1" precision="FP16">
					<dim>1</dim>
				</port>
			</output>
		</layer>
		<layer id="378" name="524/fq_weights_1/Copy/out_high18502_const" type="Const" version="opset1">
			<data element_type="f16" offset="666" shape="1" size="2"/>
			<output>
				<port id="1" precision="FP16">
					<dim>1</dim>
				</port>
			</output>
		</layer>
		<layer id="379" name="85778581_const" type="Const" version="opset1">
			<data element_type="f16" offset="34686" shape="58,1,1,1" size="116"/>
			<output>
				<port id="1" precision="FP16">
					<dim>58</dim>
					<dim>1</dim>
					<dim>1</dim>
					<dim>1</dim>
				</port>
			</output>
		</layer>
		<layer id="380" name="85788582_const" type="Const" version="opset1">
			<data element_type="f16" offset="34802" shape="58,1,1,1" size="116"/>
			<output>
				<port id="1" precision="FP16">
					<dim>58</dim>
					<dim>1</dim>
					<dim>1</dim>
					<dim>1</dim>
				</port>
			</output>
		</layer>
		<layer id="381" name="524/fq_weights_1" type="FakeQuantize" version="opset1">
			<data levels="255"/>
			<input>
				<port id="0">
					<dim>58</dim>
					<dim>58</dim>
					<dim>1</dim>
					<dim>1</dim>
				</port>
				<port id="1">
					<dim>1</dim>
				</port>
				<port id="2">
					<dim>1</dim>
				</port>
				<port id="3">
					<dim>58</dim>
					<dim>1</dim>
					<dim>1</dim>
					<dim>1</dim>
				</port>
				<port id="4">
					<dim>58</dim>
					<dim>1</dim>
					<dim>1</dim>
					<dim>1</dim>
				</port>
			</input>
			<output>
				<port id="5" precision="FP16">
					<dim>58</dim>
					<dim>58</dim>
					<dim>1</dim>
					<dim>1</dim>
				</port>
			</output>
		</layer>
		<layer id="382" name="524" type="Convolution" version="opset1">
			<data dilations="1,1" output_padding="0,0" pads_begin="0,0" pads_end="0,0" strides="1,1"/>
			<input>
				<port id="0">
					<dim>1</dim>
					<dim>58</dim>
					<dim>40</dim>
					<dim>40</dim>
				</port>
				<port id="1">
					<dim>58</dim>
					<dim>58</dim>
					<dim>1</dim>
					<dim>1</dim>
				</port>
			</input>
			<output>
				<port id="2" precision="FP16">
					<dim>1</dim>
					<dim>58</dim>
					<dim>40</dim>
					<dim>40</dim>
				</port>
			</output>
		</layer>
		<layer id="383" name="data_add_335973360234872/EltwiseUnsqueeze35518_const2274_const" type="Const" version="opset1">
			<data element_type="f16" offset="34918" shape="1,58,1,1" size="116"/>
			<output>
				<port id="1" precision="FP16">
					<dim>1</dim>
					<dim>58</dim>
					<dim>1</dim>
					<dim>1</dim>
				</port>
			</output>
		</layer>
		<layer id="384" name="525/variance/Fused_Add_" type="Add" version="opset1">
			<input>
				<port id="0">
					<dim>1</dim>
					<dim>58</dim>
					<dim>40</dim>
					<dim>40</dim>
				</port>
				<port id="1">
					<dim>1</dim>
					<dim>58</dim>
					<dim>1</dim>
					<dim>1</dim>
				</port>
			</input>
			<output>
				<port id="2" precision="FP16">
					<dim>1</dim>
					<dim>58</dim>
					<dim>40</dim>
					<dim>40</dim>
				</port>
			</output>
		</layer>
		<layer id="385" name="526" type="ReLU" version="opset1">
			<input>
				<port id="0">
					<dim>1</dim>
					<dim>58</dim>
					<dim>40</dim>
					<dim>40</dim>
				</port>
			</input>
			<output>
				<port id="1" precision="FP16">
					<dim>1</dim>
					<dim>58</dim>
					<dim>40</dim>
					<dim>40</dim>
				</port>
			</output>
		</layer>
		<layer id="386" name="1198711991_const" type="Const" version="opset1">
			<data element_type="f16" offset="35034" shape="1,1,1,1" size="2"/>
			<output>
				<port id="1" precision="FP16">
					<dim>1</dim>
					<dim>1</dim>
					<dim>1</dim>
					<dim>1</dim>
				</port>
			</output>
		</layer>
		<layer id="387" name="1198811992_const" type="Const" version="opset1">
			<data element_type="f16" offset="35036" shape="1,1,1,1" size="2"/>
			<output>
				<port id="1" precision="FP16">
					<dim>1</dim>
					<dim>1</dim>
					<dim>1</dim>
					<dim>1</dim>
				</port>
			</output>
		</layer>
		<layer id="388" name="1198911993_const" type="Const" version="opset1">
			<data element_type="f16" offset="35034" shape="1,1,1,1" size="2"/>
			<output>
				<port id="1" precision="FP16">
					<dim>1</dim>
					<dim>1</dim>
					<dim>1</dim>
					<dim>1</dim>
				</port>
			</output>
		</layer>
		<layer id="389" name="1199011994_const" type="Const" version="opset1">
			<data element_type="f16" offset="35036" shape="1,1,1,1" size="2"/>
			<output>
				<port id="1" precision="FP16">
					<dim>1</dim>
					<dim>1</dim>
					<dim>1</dim>
					<dim>1</dim>
				</port>
			</output>
		</layer>
		<layer id="390" name="527/fq_input_1" type="FakeQuantize" version="opset1">
			<data levels="256"/>
			<input>
				<port id="0">
					<dim>1</dim>
					<dim>58</dim>
					<dim>40</dim>
					<dim>40</dim>
				</port>
				<port id="1">
					<dim>1</dim>
					<dim>1</dim>
					<dim>1</dim>
					<dim>1</dim>
				</port>
				<port id="2">
					<dim>1</dim>
					<dim>1</dim>
					<dim>1</dim>
					<dim>1</dim>
				</port>
				<port id="3">
					<dim>1</dim>
					<dim>1</dim>
					<dim>1</dim>
					<dim>1</dim>
				</port>
				<port id="4">
					<dim>1</dim>
					<dim>1</dim>
					<dim>1</dim>
					<dim>1</dim>
				</port>
			</input>
			<output>
				<port id="5" precision="FP16">
					<dim>1</dim>
					<dim>58</dim>
					<dim>40</dim>
					<dim>40</dim>
				</port>
			</output>
		</layer>
		<layer id="391" name="527" type="Concat" version="opset1">
			<data axis="1"/>
			<input>
				<port id="0">
					<dim>1</dim>
					<dim>58</dim>
					<dim>40</dim>
					<dim>40</dim>
				</port>
				<port id="1">
					<dim>1</dim>
					<dim>58</dim>
					<dim>40</dim>
					<dim>40</dim>
				</port>
			</input>
			<output>
				<port id="2" precision="FP16">
					<dim>1</dim>
					<dim>116</dim>
					<dim>40</dim>
					<dim>40</dim>
				</port>
			</output>
		</layer>
		<layer id="392" name="529" type="ShapeOf" version="opset3">
			<data output_type="i64"/>
			<input>
				<port id="0">
					<dim>1</dim>
					<dim>116</dim>
					<dim>40</dim>
					<dim>40</dim>
				</port>
			</input>
			<output>
				<port id="1" precision="I64">
					<dim>4</dim>
				</port>
			</output>
		</layer>
		<layer id="393" name="5302446/Cast_121851_const" type="Const" version="opset1">
			<data element_type="i32" offset="9560" shape="" size="4"/>
			<output>
				<port id="1" precision="I32"/>
			</output>
		</layer>
		<layer id="394" name="5302446/Cast_221853_const" type="Const" version="opset1">
			<data element_type="i64" offset="9564" shape="" size="8"/>
			<output>
				<port id="1" precision="I64"/>
			</output>
		</layer>
		<layer id="395" name="5302446" type="Gather" version="opset1">
			<input>
				<port id="0">
					<dim>4</dim>
				</port>
				<port id="1"/>
				<port id="2"/>
			</input>
			<output>
				<port id="3" precision="I64"/>
			</output>
		</layer>
		<layer id="396" name="543/Dims/Output_0/Data__const2282_const" type="Const" version="opset1">
			<data element_type="i64" offset="9564" shape="1" size="8"/>
			<output>
				<port id="1" precision="I64">
					<dim>1</dim>
				</port>
			</output>
		</layer>
		<layer id="397" name="543/Unsqueeze" type="Unsqueeze" version="opset1">
			<input>
				<port id="0"/>
				<port id="1">
					<dim>1</dim>
				</port>
			</input>
			<output>
				<port id="2" precision="I64">
					<dim>1</dim>
				</port>
			</output>
		</layer>
		<layer id="398" name="544/Unsqueeze/Output_0/Data__const2284_const" type="Const" version="opset1">
			<data element_type="i64" offset="9572" shape="1" size="8"/>
			<output>
				<port id="1" precision="I64">
					<dim>1</dim>
				</port>
			</output>
		</layer>
		<layer id="399" name="532" type="ShapeOf" version="opset3">
			<data output_type="i64"/>
			<input>
				<port id="0">
					<dim>1</dim>
					<dim>116</dim>
					<dim>40</dim>
					<dim>40</dim>
				</port>
			</input>
			<output>
				<port id="1" precision="I64">
					<dim>4</dim>
				</port>
			</output>
		</layer>
		<layer id="400" name="5332442/Cast_122093_const" type="Const" version="opset1">
			<data element_type="i32" offset="9580" shape="" size="4"/>
			<output>
				<port id="1" precision="I32"/>
			</output>
		</layer>
		<layer id="401" name="5332442/Cast_222095_const" type="Const" version="opset1">
			<data element_type="i64" offset="9564" shape="" size="8"/>
			<output>
				<port id="1" precision="I64"/>
			</output>
		</layer>
		<layer id="402" name="5332442" type="Gather" version="opset1">
			<input>
				<port id="0">
					<dim>4</dim>
				</port>
				<port id="1"/>
				<port id="2"/>
			</input>
			<output>
				<port id="3" precision="I64"/>
			</output>
		</layer>
		<layer id="403" name="540/Output_0/Data__const2289_const" type="Const" version="opset1">
			<data element_type="i64" offset="9572" shape="" size="8"/>
			<output>
				<port id="1" precision="I64"/>
			</output>
		</layer>
		<layer id="404" name="541" type="Divide" version="opset1">
			<input>
				<port id="0"/>
				<port id="1"/>
			</input>
			<output>
				<port id="2" precision="I64"/>
			</output>
		</layer>
		<layer id="405" name="545/Dims/Output_0/Data__const2291_const" type="Const" version="opset1">
			<data element_type="i64" offset="9564" shape="1" size="8"/>
			<output>
				<port id="1" precision="I64">
					<dim>1</dim>
				</port>
			</output>
		</layer>
		<layer id="406" name="545/Unsqueeze" type="Unsqueeze" version="opset1">
			<input>
				<port id="0"/>
				<port id="1">
					<dim>1</dim>
				</port>
			</input>
			<output>
				<port id="2" precision="I64">
					<dim>1</dim>
				</port>
			</output>
		</layer>
		<layer id="407" name="535" type="ShapeOf" version="opset3">
			<data output_type="i64"/>
			<input>
				<port id="0">
					<dim>1</dim>
					<dim>116</dim>
					<dim>40</dim>
					<dim>40</dim>
				</port>
			</input>
			<output>
				<port id="1" precision="I64">
					<dim>4</dim>
				</port>
			</output>
		</layer>
		<layer id="408" name="5362604/Cast_121961_const" type="Const" version="opset1">
			<data element_type="i32" offset="9584" shape="" size="4"/>
			<output>
				<port id="1" precision="I32"/>
			</output>
		</layer>
		<layer id="409" name="5362604/Cast_221963_const" type="Const" version="opset1">
			<data element_type="i64" offset="9564" shape="" size="8"/>
			<output>
				<port id="1" precision="I64"/>
			</output>
		</layer>
		<layer id="410" name="5362604" type="Gather" version="opset1">
			<input>
				<port id="0">
					<dim>4</dim>
				</port>
				<port id="1"/>
				<port id="2"/>
			</input>
			<output>
				<port id="3" precision="I64"/>
			</output>
		</layer>
		<layer id="411" name="546/Dims/Output_0/Data__const2297_const" type="Const" version="opset1">
			<data element_type="i64" offset="9564" shape="1" size="8"/>
			<output>
				<port id="1" precision="I64">
					<dim>1</dim>
				</port>
			</output>
		</layer>
		<layer id="412" name="546/Unsqueeze" type="Unsqueeze" version="opset1">
			<input>
				<port id="0"/>
				<port id="1">
					<dim>1</dim>
				</port>
			</input>
			<output>
				<port id="2" precision="I64">
					<dim>1</dim>
				</port>
			</output>
		</layer>
		<layer id="413" name="538" type="ShapeOf" version="opset3">
			<data output_type="i64"/>
			<input>
				<port id="0">
					<dim>1</dim>
					<dim>116</dim>
					<dim>40</dim>
					<dim>40</dim>
				</port>
			</input>
			<output>
				<port id="1" precision="I64">
					<dim>4</dim>
				</port>
			</output>
		</layer>
		<layer id="414" name="5392316/Cast_122125_const" type="Const" version="opset1">
			<data element_type="i32" offset="9588" shape="" size="4"/>
			<output>
				<port id="1" precision="I32"/>
			</output>
		</layer>
		<layer id="415" name="5392316/Cast_222127_const" type="Const" version="opset1">
			<data element_type="i64" offset="9564" shape="" size="8"/>
			<output>
				<port id="1" precision="I64"/>
			</output>
		</layer>
		<layer id="416" name="5392316" type="Gather" version="opset1">
			<input>
				<port id="0">
					<dim>4</dim>
				</port>
				<port id="1"/>
				<port id="2"/>
			</input>
			<output>
				<port id="3" precision="I64"/>
			</output>
		</layer>
		<layer id="417" name="547/Dims/Output_0/Data__const2303_const" type="Const" version="opset1">
			<data element_type="i64" offset="9564" shape="1" size="8"/>
			<output>
				<port id="1" precision="I64">
					<dim>1</dim>
				</port>
			</output>
		</layer>
		<layer id="418" name="547/Unsqueeze" type="Unsqueeze" version="opset1">
			<input>
				<port id="0"/>
				<port id="1">
					<dim>1</dim>
				</port>
			</input>
			<output>
				<port id="2" precision="I64">
					<dim>1</dim>
				</port>
			</output>
		</layer>
		<layer id="419" name="548" type="Concat" version="opset1">
			<data axis="0"/>
			<input>
				<port id="0">
					<dim>1</dim>
				</port>
				<port id="1">
					<dim>1</dim>
				</port>
				<port id="2">
					<dim>1</dim>
				</port>
				<port id="3">
					<dim>1</dim>
				</port>
				<port id="4">
					<dim>1</dim>
				</port>
			</input>
			<output>
				<port id="5" precision="I64">
					<dim>5</dim>
				</port>
			</output>
		</layer>
		<layer id="420" name="549" type="Reshape" version="opset1">
			<data special_zero="True"/>
			<input>
				<port id="0">
					<dim>1</dim>
					<dim>116</dim>
					<dim>40</dim>
					<dim>40</dim>
				</port>
				<port id="1">
					<dim>5</dim>
				</port>
			</input>
			<output>
				<port id="2" precision="FP16">
					<dim>1</dim>
					<dim>2</dim>
					<dim>58</dim>
					<dim>40</dim>
					<dim>40</dim>
				</port>
			</output>
		</layer>
		<layer id="421" name="550/Cast_121967_const" type="Const" version="opset1">
			<data element_type="i64" offset="9592" shape="5" size="40"/>
			<output>
				<port id="1" precision="I64">
					<dim>5</dim>
				</port>
			</output>
		</layer>
		<layer id="422" name="550" type="Transpose" version="opset1">
			<input>
				<port id="0">
					<dim>1</dim>
					<dim>2</dim>
					<dim>58</dim>
					<dim>40</dim>
					<dim>40</dim>
				</port>
				<port id="1">
					<dim>5</dim>
				</port>
			</input>
			<output>
				<port id="2" precision="FP16">
					<dim>1</dim>
					<dim>58</dim>
					<dim>2</dim>
					<dim>40</dim>
					<dim>40</dim>
				</port>
			</output>
		</layer>
		<layer id="423" name="551/Dims/Output_0/Data__const2309_const" type="Const" version="opset1">
			<data element_type="i64" offset="9564" shape="1" size="8"/>
			<output>
				<port id="1" precision="I64">
					<dim>1</dim>
				</port>
			</output>
		</layer>
		<layer id="424" name="551/Unsqueeze" type="Unsqueeze" version="opset1">
			<input>
				<port id="0"/>
				<port id="1">
					<dim>1</dim>
				</port>
			</input>
			<output>
				<port id="2" precision="I64">
					<dim>1</dim>
				</port>
			</output>
		</layer>
		<layer id="425" name="552/Dims/Output_0/Data__const2311_const" type="Const" version="opset1">
			<data element_type="i64" offset="9564" shape="1" size="8"/>
			<output>
				<port id="1" precision="I64">
					<dim>1</dim>
				</port>
			</output>
		</layer>
		<layer id="426" name="552/Unsqueeze" type="Unsqueeze" version="opset1">
			<input>
				<port id="0"/>
				<port id="1">
					<dim>1</dim>
				</port>
			</input>
			<output>
				<port id="2" precision="I64">
					<dim>1</dim>
				</port>
			</output>
		</layer>
		<layer id="427" name="553/Dims/Output_0/Data__const2313_const" type="Const" version="opset1">
			<data element_type="i64" offset="9564" shape="1" size="8"/>
			<output>
				<port id="1" precision="I64">
					<dim>1</dim>
				</port>
			</output>
		</layer>
		<layer id="428" name="553/Unsqueeze" type="Unsqueeze" version="opset1">
			<input>
				<port id="0"/>
				<port id="1">
					<dim>1</dim>
				</port>
			</input>
			<output>
				<port id="2" precision="I64">
					<dim>1</dim>
				</port>
			</output>
		</layer>
		<layer id="429" name="554/Dims/Output_0/Data__const2315_const" type="Const" version="opset1">
			<data element_type="i64" offset="9564" shape="1" size="8"/>
			<output>
				<port id="1" precision="I64">
					<dim>1</dim>
				</port>
			</output>
		</layer>
		<layer id="430" name="554/Unsqueeze" type="Unsqueeze" version="opset1">
			<input>
				<port id="0"/>
				<port id="1">
					<dim>1</dim>
				</port>
			</input>
			<output>
				<port id="2" precision="I64">
					<dim>1</dim>
				</port>
			</output>
		</layer>
		<layer id="431" name="555" type="Concat" version="opset1">
			<data axis="0"/>
			<input>
				<port id="0">
					<dim>1</dim>
				</port>
				<port id="1">
					<dim>1</dim>
				</port>
				<port id="2">
					<dim>1</dim>
				</port>
				<port id="3">
					<dim>1</dim>
				</port>
			</input>
			<output>
				<port id="4" precision="I64">
					<dim>4</dim>
				</port>
			</output>
		</layer>
		<layer id="432" name="556" type="Reshape" version="opset1">
			<data special_zero="True"/>
			<input>
				<port id="0">
					<dim>1</dim>
					<dim>58</dim>
					<dim>2</dim>
					<dim>40</dim>
					<dim>40</dim>
				</port>
				<port id="1">
					<dim>4</dim>
				</port>
			</input>
			<output>
				<port id="2" precision="FP16">
					<dim>1</dim>
					<dim>116</dim>
…
		<edge from-layer="3030" from-port="1" to-layer="3032" to-port="0"/>
		<edge from-layer="3031" from-port="1" to-layer="3032" to-port="1"/>
		<edge from-layer="3032" from-port="2" to-layer="3034" to-port="0"/>
		<edge from-layer="3033" from-port="1" to-layer="3034" to-port="1"/>
		<edge from-layer="3034" from-port="2" to-layer="3035" to-port="0"/>
		<edge from-layer="3035" from-port="1" to-layer="3040" to-port="0"/>
		<edge from-layer="3036" from-port="1" to-layer="3040" to-port="1"/>
		<edge from-layer="3037" from-port="1" to-layer="3040" to-port="2"/>
		<edge from-layer="3038" from-port="1" to-layer="3040" to-port="3"/>
		<edge from-layer="3039" from-port="1" to-layer="3040" to-port="4"/>
		<edge from-layer="3041" from-port="1" to-layer="3042" to-port="0"/>
		<edge from-layer="3042" from-port="1" to-layer="3047" to-port="0"/>
		<edge from-layer="3043" from-port="1" to-layer="3047" to-port="1"/>
		<edge from-layer="3044" from-port="1" to-layer="3047" to-port="2"/>
		<edge from-layer="3045" from-port="1" to-layer="3047" to-port="3"/>
		<edge from-layer="3046" from-port="1" to-layer="3047" to-port="4"/>
		<edge from-layer="3040" from-port="5" to-layer="3048" to-port="0"/>
		<edge from-layer="3047" from-port="5" to-layer="3048" to-port="1"/>
		<edge from-layer="3048" from-port="2" to-layer="3050" to-port="0"/>
		<edge from-layer="3049" from-port="1" to-layer="3050" to-port="1"/>
		<edge from-layer="3050" from-port="2" to-layer="3055" to-port="0"/>
		<edge from-layer="3051" from-port="1" to-layer="3055" to-port="1"/>
		<edge from-layer="3052" from-port="1" to-layer="3055" to-port="2"/>
		<edge from-layer="3053" from-port="1" to-layer="3055" to-port="3"/>
		<edge from-layer="3054" from-port="1" to-layer="3055" to-port="4"/>
		<edge from-layer="3055" from-port="5" to-layer="3056" to-port="0"/>
		<edge from-layer="3056" from-port="1" to-layer="3058" to-port="0"/>
		<edge from-layer="3057" from-port="1" to-layer="3058" to-port="1"/>
		<edge from-layer="3058" from-port="2" to-layer="3060" to-port="0"/>
		<edge from-layer="3059" from-port="1" to-layer="3060" to-port="1"/>
		<edge from-layer="3060" from-port="2" to-layer="3061" to-port="0"/>
		<edge from-layer="3061" from-port="1" to-layer="3066" to-port="0"/>
		<edge from-layer="3062" from-port="1" to-layer="3066" to-port="1"/>
		<edge from-layer="3063" from-port="1" to-layer="3066" to-port="2"/>
		<edge from-layer="3064" from-port="1" to-layer="3066" to-port="3"/>
		<edge from-layer="3065" from-port="1" to-layer="3066" to-port="4"/>
		<edge from-layer="3067" from-port="1" to-layer="3068" to-port="0"/>
		<edge from-layer="3068" from-port="1" to-layer="3073" to-port="0"/>
		<edge from-layer="3069" from-port="1" to-layer="3073" to-port="1"/>
		<edge from-layer="3070" from-port="1" to-layer="3073" to-port="2"/>
		<edge from-layer="3071" from-port="1" to-layer="3073" to-port="3"/>
		<edge from-layer="3072" from-port="1" to-layer="3073" to-port="4"/>
		<edge from-layer="3066" from-port="5" to-layer="3074" to-port="0"/>
		<edge from-layer="3073" from-port="5" to-layer="3074" to-port="1"/>
		<edge from-layer="3074" from-port="2" to-layer="3076" to-port="0"/>
		<edge from-layer="3075" from-port="1" to-layer="3076" to-port="1"/>
		<edge from-layer="3076" from-port="2" to-layer="3081" to-port="0"/>
		<edge from-layer="3077" from-port="1" to-layer="3081" to-port="1"/>
		<edge from-layer="3078" from-port="1" to-layer="3081" to-port="2"/>
		<edge from-layer="3079" from-port="1" to-layer="3081" to-port="3"/>
		<edge from-layer="3080" from-port="1" to-layer="3081" to-port="4"/>
		<edge from-layer="3081" from-port="5" to-layer="3082" to-port="0"/>
		<edge from-layer="3082" from-port="1" to-layer="3084" to-port="0"/>
		<edge from-layer="3083" from-port="1" to-layer="3084" to-port="1"/>
		<edge from-layer="3084" from-port="2" to-layer="3086" to-port="0"/>
		<edge from-layer="3085" from-port="1" to-layer="3086" to-port="1"/>
		<edge from-layer="3086" from-port="2" to-layer="3087" to-port="0"/>
		<edge from-layer="3087" from-port="1" to-layer="3092" to-port="0"/>
		<edge from-layer="3088" from-port="1" to-layer="3092" to-port="1"/>
		<edge from-layer="3089" from-port="1" to-layer="3092" to-port="2"/>
		<edge from-layer="3090" from-port="1" to-layer="3092" to-port="3"/>
		<edge from-layer="3091" from-port="1" to-layer="3092" to-port="4"/>
		<edge from-layer="3093" from-port="1" to-layer="3094" to-port="0"/>
		<edge from-layer="3094" from-port="1" to-layer="3099" to-port="0"/>
		<edge from-layer="3095" from-port="1" to-layer="3099" to-port="1"/>
		<edge from-layer="3096" from-port="1" to-layer="3099" to-port="2"/>
		<edge from-layer="3097" from-port="1" to-layer="3099" to-port="3"/>
		<edge from-layer="3098" from-port="1" to-layer="3099" to-port="4"/>
		<edge from-layer="3092" from-port="5" to-layer="3100" to-port="0"/>
		<edge from-layer="3099" from-port="5" to-layer="3100" to-port="1"/>
		<edge from-layer="3100" from-port="2" to-layer="3102" to-port="0"/>
		<edge from-layer="3101" from-port="1" to-layer="3102" to-port="1"/>
		<edge from-layer="3102" from-port="2" to-layer="3103" to-port="0"/>
		<edge from-layer="3103" from-port="1" to-layer="3106" to-port="0"/>
		<edge from-layer="3104" from-port="1" to-layer="3106" to-port="1"/>
		<edge from-layer="3105" from-port="1" to-layer="3106" to-port="2"/>
		<edge from-layer="3106" from-port="3" to-layer="3108" to-port="0"/>
		<edge from-layer="3107" from-port="1" to-layer="3108" to-port="1"/>
		<edge from-layer="3108" from-port="2" to-layer="3110" to-port="0"/>
		<edge from-layer="3109" from-port="1" to-layer="3110" to-port="1"/>
		<edge from-layer="2982" from-port="1" to-layer="3111" to-port="0"/>
		<edge from-layer="3110" from-port="2" to-layer="3113" to-port="0"/>
		<edge from-layer="3111" from-port="1" to-layer="3113" to-port="1"/>
		<edge from-layer="3112" from-port="1" to-layer="3113" to-port="2"/>
		<edge from-layer="3113" from-port="3" to-layer="3116" to-port="0"/>
		<edge from-layer="3114" from-port="1" to-layer="3116" to-port="1"/>
		<edge from-layer="3115" from-port="1" to-layer="3116" to-port="2"/>
		<edge from-layer="2988" from-port="3" to-layer="3117" to-port="0"/>
		<edge from-layer="3116" from-port="3" to-layer="3117" to-port="1"/>
		<edge from-layer="3117" from-port="2" to-layer="3118" to-port="0"/>
		<edge from-layer="3118" from-port="1" to-layer="3120" to-port="0"/>
		<edge from-layer="3119" from-port="1" to-layer="3120" to-port="1"/>
		<edge from-layer="2985" from-port="3" to-layer="3123" to-port="0"/>
		<edge from-layer="3121" from-port="1" to-layer="3123" to-port="1"/>
		<edge from-layer="3122" from-port="1" to-layer="3123" to-port="2"/>
		<edge from-layer="3113" from-port="3" to-layer="3126" to-port="0"/>
		<edge from-layer="3124" from-port="1" to-layer="3126" to-port="1"/>
		<edge from-layer="3125" from-port="1" to-layer="3126" to-port="2"/>
		<edge from-layer="3123" from-port="3" to-layer="3127" to-port="0"/>
		<edge from-layer="3126" from-port="3" to-layer="3127" to-port="1"/>
		<edge from-layer="3127" from-port="2" to-layer="3128" to-port="0"/>
		<edge from-layer="3128" from-port="1" to-layer="3130" to-port="0"/>
		<edge from-layer="3129" from-port="1" to-layer="3130" to-port="1"/>
		<edge from-layer="2985" from-port="3" to-layer="3133" to-port="0"/>
		<edge from-layer="3131" from-port="1" to-layer="3133" to-port="1"/>
		<edge from-layer="3132" from-port="1" to-layer="3133" to-port="2"/>
		<edge from-layer="3113" from-port="3" to-layer="3136" to-port="0"/>
		<edge from-layer="3134" from-port="1" to-layer="3136" to-port="1"/>
		<edge from-layer="3135" from-port="1" to-layer="3136" to-port="2"/>
		<edge from-layer="3133" from-port="3" to-layer="3137" to-port="0"/>
		<edge from-layer="3136" from-port="3" to-layer="3137" to-port="1"/>
		<edge from-layer="3137" from-port="2" to-layer="3138" to-port="0"/>
		<edge from-layer="3138" from-port="1" to-layer="3140" to-port="0"/>
		<edge from-layer="3139" from-port="1" to-layer="3140" to-port="1"/>
		<edge from-layer="2985" from-port="3" to-layer="3143" to-port="0"/>
		<edge from-layer="3141" from-port="1" to-layer="3143" to-port="1"/>
		<edge from-layer="3142" from-port="1" to-layer="3143" to-port="2"/>
		<edge from-layer="3113" from-port="3" to-layer="3146" to-port="0"/>
		<edge from-layer="3144" from-port="1" to-layer="3146" to-port="1"/>
		<edge from-layer="3145" from-port="1" to-layer="3146" to-port="2"/>
		<edge from-layer="3143" from-port="3" to-layer="3147" to-port="0"/>
		<edge from-layer="3146" from-port="3" to-layer="3147" to-port="1"/>
		<edge from-layer="3147" from-port="2" to-layer="3148" to-port="0"/>
		<edge from-layer="3148" from-port="1" to-layer="3150" to-port="0"/>
		<edge from-layer="3149" from-port="1" to-layer="3150" to-port="1"/>
		<edge from-layer="3120" from-port="2" to-layer="3151" to-port="0"/>
		<edge from-layer="3130" from-port="2" to-layer="3151" to-port="1"/>
		<edge from-layer="3140" from-port="2" to-layer="3151" to-port="2"/>
		<edge from-layer="3150" from-port="2" to-layer="3151" to-port="3"/>
		<edge from-layer="2444" from-port="3" to-layer="3153" to-port="0"/>
		<edge from-layer="3153" from-port="1" to-layer="3154" to-port="0"/>
		<edge from-layer="3152" from-port="1" to-layer="3156" to-port="0"/>
		<edge from-layer="3154" from-port="1" to-layer="3156" to-port="1"/>
		<edge from-layer="3155" from-port="1" to-layer="3156" to-port="2"/>
		<edge from-layer="3156" from-port="3" to-layer="3159" to-port="0"/>
		<edge from-layer="3157" from-port="1" to-layer="3159" to-port="1"/>
		<edge from-layer="3158" from-port="1" to-layer="3159" to-port="2"/>
		<edge from-layer="3160" from-port="1" to-layer="3161" to-port="0"/>
		<edge from-layer="3161" from-port="1" to-layer="3166" to-port="0"/>
		<edge from-layer="3162" from-port="1" to-layer="3166" to-port="1"/>
		<edge from-layer="3163" from-port="1" to-layer="3166" to-port="2"/>
		<edge from-layer="3164" from-port="1" to-layer="3166" to-port="3"/>
		<edge from-layer="3165" from-port="1" to-layer="3166" to-port="4"/>
		<edge from-layer="2273" from-port="5" to-layer="3167" to-port="0"/>
		<edge from-layer="3166" from-port="5" to-layer="3167" to-port="1"/>
		<edge from-layer="3167" from-port="2" to-layer="3169" to-port="0"/>
		<edge from-layer="3168" from-port="1" to-layer="3169" to-port="1"/>
		<edge from-layer="3169" from-port="2" to-layer="3174" to-port="0"/>
		<edge from-layer="3170" from-port="1" to-layer="3174" to-port="1"/>
		<edge from-layer="3171" from-port="1" to-layer="3174" to-port="2"/>
		<edge from-layer="3172" from-port="1" to-layer="3174" to-port="3"/>
		<edge from-layer="3173" from-port="1" to-layer="3174" to-port="4"/>
		<edge from-layer="3174" from-port="5" to-layer="3175" to-port="0"/>
		<edge from-layer="3175" from-port="1" to-layer="3177" to-port="0"/>
		<edge from-layer="3176" from-port="1" to-layer="3177" to-port="1"/>
		<edge from-layer="3177" from-port="2" to-layer="3179" to-port="0"/>
		<edge from-layer="3178" from-port="1" to-layer="3179" to-port="1"/>
		<edge from-layer="3179" from-port="2" to-layer="3180" to-port="0"/>
		<edge from-layer="3180" from-port="1" to-layer="3185" to-port="0"/>
		<edge from-layer="3181" from-port="1" to-layer="3185" to-port="1"/>
		<edge from-layer="3182" from-port="1" to-layer="3185" to-port="2"/>
		<edge from-layer="3183" from-port="1" to-layer="3185" to-port="3"/>
		<edge from-layer="3184" from-port="1" to-layer="3185" to-port="4"/>
		<edge from-layer="3186" from-port="1" to-layer="3187" to-port="0"/>
		<edge from-layer="3187" from-port="1" to-layer="3192" to-port="0"/>
		<edge from-layer="3188" from-port="1" to-layer="3192" to-port="1"/>
		<edge from-layer="3189" from-port="1" to-layer="3192" to-port="2"/>
		<edge from-layer="3190" from-port="1" to-layer="3192" to-port="3"/>
		<edge from-layer="3191" from-port="1" to-layer="3192" to-port="4"/>
		<edge from-layer="3185" from-port="5" to-layer="3193" to-port="0"/>
		<edge from-layer="3192" from-port="5" to-layer="3193" to-port="1"/>
		<edge from-layer="3193" from-port="2" to-layer="3195" to-port="0"/>
		<edge from-layer="3194" from-port="1" to-layer="3195" to-port="1"/>
		<edge from-layer="3195" from-port="2" to-layer="3200" to-port="0"/>
		<edge from-layer="3196" from-port="1" to-layer="3200" to-port="1"/>
		<edge from-layer="3197" from-port="1" to-layer="3200" to-port="2"/>
		<edge from-layer="3198" from-port="1" to-layer="3200" to-port="3"/>
		<edge from-layer="3199" from-port="1" to-layer="3200" to-port="4"/>
		<edge from-layer="3200" from-port="5" to-layer="3201" to-port="0"/>
		<edge from-layer="3201" from-port="1" to-layer="3203" to-port="0"/>
		<edge from-layer="3202" from-port="1" to-layer="3203" to-port="1"/>
		<edge from-layer="3203" from-port="2" to-layer="3205" to-port="0"/>
		<edge from-layer="3204" from-port="1" to-layer="3205" to-port="1"/>
		<edge from-layer="3205" from-port="2" to-layer="3206" to-port="0"/>
		<edge from-layer="3206" from-port="1" to-layer="3211" to-port="0"/>
		<edge from-layer="3207" from-port="1" to-layer="3211" to-port="1"/>
		<edge from-layer="3208" from-port="1" to-layer="3211" to-port="2"/>
		<edge from-layer="3209" from-port="1" to-layer="3211" to-port="3"/>
		<edge from-layer="3210" from-port="1" to-layer="3211" to-port="4"/>
		<edge from-layer="3212" from-port="1" to-layer="3213" to-port="0"/>
		<edge from-layer="3213" from-port="1" to-layer="3218" to-port="0"/>
		<edge from-layer="3214" from-port="1" to-layer="3218" to-port="1"/>
		<edge from-layer="3215" from-port="1" to-layer="3218" to-port="2"/>
		<edge from-layer="3216" from-port="1" to-layer="3218" to-port="3"/>
		<edge from-layer="3217" from-port="1" to-layer="3218" to-port="4"/>
		<edge from-layer="3211" from-port="5" to-layer="3219" to-port="0"/>
		<edge from-layer="3218" from-port="5" to-layer="3219" to-port="1"/>
		<edge from-layer="3219" from-port="2" to-layer="3221" to-port="0"/>
		<edge from-layer="3220" from-port="1" to-layer="3221" to-port="1"/>
		<edge from-layer="3221" from-port="2" to-layer="3226" to-port="0"/>
		<edge from-layer="3222" from-port="1" to-layer="3226" to-port="1"/>
		<edge from-layer="3223" from-port="1" to-layer="3226" to-port="2"/>
		<edge from-layer="3224" from-port="1" to-layer="3226" to-port="3"/>
		<edge from-layer="3225" from-port="1" to-layer="3226" to-port="4"/>
		<edge from-layer="3226" from-port="5" to-layer="3227" to-port="0"/>
		<edge from-layer="3227" from-port="1" to-layer="3229" to-port="0"/>
		<edge from-layer="3228" from-port="1" to-layer="3229" to-port="1"/>
		<edge from-layer="3229" from-port="2" to-layer="3231" to-port="0"/>
		<edge from-layer="3230" from-port="1" to-layer="3231" to-port="1"/>
		<edge from-layer="3231" from-port="2" to-layer="3232" to-port="0"/>
		<edge from-layer="3232" from-port="1" to-layer="3237" to-port="0"/>
		<edge from-layer="3233" from-port="1" to-layer="3237" to-port="1"/>
		<edge from-layer="3234" from-port="1" to-layer="3237" to-port="2"/>
		<edge from-layer="3235" from-port="1" to-layer="3237" to-port="3"/>
		<edge from-layer="3236" from-port="1" to-layer="3237" to-port="4"/>
		<edge from-layer="3238" from-port="1" to-layer="3239" to-port="0"/>
		<edge from-layer="3239" from-port="1" to-layer="3244" to-port="0"/>
		<edge from-layer="3240" from-port="1" to-layer="3244" to-port="1"/>
		<edge from-layer="3241" from-port="1" to-layer="3244" to-port="2"/>
		<edge from-layer="3242" from-port="1" to-layer="3244" to-port="3"/>
		<edge from-layer="3243" from-port="1" to-layer="3244" to-port="4"/>
		<edge from-layer="3237" from-port="5" to-layer="3245" to-port="0"/>
		<edge from-layer="3244" from-port="5" to-layer="3245" to-port="1"/>
		<edge from-layer="3245" from-port="2" to-layer="3247" to-port="0"/>
		<edge from-layer="3246" from-port="1" to-layer="3247" to-port="1"/>
		<edge from-layer="3247" from-port="2" to-layer="3252" to-port="0"/>
		<edge from-layer="3248" from-port="1" to-layer="3252" to-port="1"/>
		<edge from-layer="3249" from-port="1" to-layer="3252" to-port="2"/>
		<edge from-layer="3250" from-port="1" to-layer="3252" to-port="3"/>
		<edge from-layer="3251" from-port="1" to-layer="3252" to-port="4"/>
		<edge from-layer="3252" from-port="5" to-layer="3253" to-port="0"/>
		<edge from-layer="3253" from-port="1" to-layer="3255" to-port="0"/>
		<edge from-layer="3254" from-port="1" to-layer="3255" to-port="1"/>
		<edge from-layer="3255" from-port="2" to-layer="3257" to-port="0"/>
		<edge from-layer="3256" from-port="1" to-layer="3257" to-port="1"/>
		<edge from-layer="3257" from-port="2" to-layer="3258" to-port="0"/>
		<edge from-layer="3258" from-port="1" to-layer="3263" to-port="0"/>
		<edge from-layer="3259" from-port="1" to-layer="3263" to-port="1"/>
		<edge from-layer="3260" from-port="1" to-layer="3263" to-port="2"/>
		<edge from-layer="3261" from-port="1" to-layer="3263" to-port="3"/>
		<edge from-layer="3262" from-port="1" to-layer="3263" to-port="4"/>
		<edge from-layer="3264" from-port="1" to-layer="3265" to-port="0"/>
		<edge from-layer="3265" from-port="1" to-layer="3270" to-port="0"/>
		<edge from-layer="3266" from-port="1" to-layer="3270" to-port="1"/>
		<edge from-layer="3267" from-port="1" to-layer="3270" to-port="2"/>
		<edge from-layer="3268" from-port="1" to-layer="3270" to-port="3"/>
		<edge from-layer="3269" from-port="1" to-layer="3270" to-port="4"/>
		<edge from-layer="3263" from-port="5" to-layer="3271" to-port="0"/>
		<edge from-layer="3270" from-port="5" to-layer="3271" to-port="1"/>
		<edge from-layer="3271" from-port="2" to-layer="3273" to-port="0"/>
		<edge from-layer="3272" from-port="1" to-layer="3273" to-port="1"/>
		<edge from-layer="3273" from-port="2" to-layer="3274" to-port="0"/>
		<edge from-layer="3274" from-port="1" to-layer="3277" to-port="0"/>
		<edge from-layer="3275" from-port="1" to-layer="3277" to-port="1"/>
		<edge from-layer="3276" from-port="1" to-layer="3277" to-port="2"/>
		<edge from-layer="3277" from-port="3" to-layer="3279" to-port="0"/>
		<edge from-layer="3278" from-port="1" to-layer="3279" to-port="1"/>
		<edge from-layer="3279" from-port="2" to-layer="3281" to-port="0"/>
		<edge from-layer="3280" from-port="1" to-layer="3281" to-port="1"/>
		<edge from-layer="3153" from-port="1" to-layer="3282" to-port="0"/>
		<edge from-layer="3281" from-port="2" to-layer="3284" to-port="0"/>
		<edge from-layer="3282" from-port="1" to-layer="3284" to-port="1"/>
		<edge from-layer="3283" from-port="1" to-layer="3284" to-port="2"/>
		<edge from-layer="3284" from-port="3" to-layer="3287" to-port="0"/>
		<edge from-layer="3285" from-port="1" to-layer="3287" to-port="1"/>
		<edge from-layer="3286" from-port="1" to-layer="3287" to-port="2"/>
		<edge from-layer="3159" from-port="3" to-layer="3288" to-port="0"/>
		<edge from-layer="3287" from-port="3" to-layer="3288" to-port="1"/>
		<edge from-layer="3288" from-port="2" to-layer="3289" to-port="0"/>
		<edge from-layer="3289" from-port="1" to-layer="3291" to-port="0"/>
		<edge from-layer="3290" from-port="1" to-layer="3291" to-port="1"/>
		<edge from-layer="3156" from-port="3" to-layer="3294" to-port="0"/>
		<edge from-layer="3292" from-port="1" to-layer="3294" to-port="1"/>
		<edge from-layer="3293" from-port="1" to-layer="3294" to-port="2"/>
		<edge from-layer="3284" from-port="3" to-layer="3297" to-port="0"/>
		<edge from-layer="3295" from-port="1" to-layer="3297" to-port="1"/>
		<edge from-layer="3296" from-port="1" to-layer="3297" to-port="2"/>
		<edge from-layer="3294" from-port="3" to-layer="3298" to-port="0"/>
		<edge from-layer="3297" from-port="3" to-layer="3298" to-port="1"/>
		<edge from-layer="3298" from-port="2" to-layer="3299" to-port="0"/>
		<edge from-layer="3299" from-port="1" to-layer="3301" to-port="0"/>
		<edge from-layer="3300" from-port="1" to-layer="3301" to-port="1"/>
		<edge from-layer="3156" from-port="3" to-layer="3304" to-port="0"/>
		<edge from-layer="3302" from-port="1" to-layer="3304" to-port="1"/>
		<edge from-layer="3303" from-port="1" to-layer="3304" to-port="2"/>
		<edge from-layer="3284" from-port="3" to-layer="3307" to-port="0"/>
		<edge from-layer="3305" from-port="1" to-layer="3307" to-port="1"/>
		<edge from-layer="3306" from-port="1" to-layer="3307" to-port="2"/>
		<edge from-layer="3304" from-port="3" to-layer="3308" to-port="0"/>
		<edge from-layer="3307" from-port="3" to-layer="3308" to-port="1"/>
		<edge from-layer="3308" from-port="2" to-layer="3309" to-port="0"/>
		<edge from-layer="3309" from-port="1" to-layer="3311" to-port="0"/>
		<edge from-layer="3310" from-port="1" to-layer="3311" to-port="1"/>
		<edge from-layer="3156" from-port="3" to-layer="3314" to-port="0"/>
		<edge from-layer="3312" from-port="1" to-layer="3314" to-port="1"/>
		<edge from-layer="3313" from-port="1" to-layer="3314" to-port="2"/>
		<edge from-layer="3284" from-port="3" to-layer="3317" to-port="0"/>
		<edge from-layer="3315" from-port="1" to-layer="3317" to-port="1"/>
		<edge from-layer="3316" from-port="1" to-layer="3317" to-port="2"/>
		<edge from-layer="3314" from-port="3" to-layer="3318" to-port="0"/>
		<edge from-layer="3317" from-port="3" to-layer="3318" to-port="1"/>
		<edge from-layer="3318" from-port="2" to-layer="3319" to-port="0"/>
		<edge from-layer="3319" from-port="1" to-layer="3321" to-port="0"/>
		<edge from-layer="3320" from-port="1" to-layer="3321" to-port="1"/>
		<edge from-layer="3291" from-port="2" to-layer="3322" to-port="0"/>
		<edge from-layer="3301" from-port="2" to-layer="3322" to-port="1"/>
		<edge from-layer="3311" from-port="2" to-layer="3322" to-port="2"/>
		<edge from-layer="3321" from-port="2" to-layer="3322" to-port="3"/>
		<edge from-layer="2637" from-port="3" to-layer="3324" to-port="0"/>
		<edge from-layer="3324" from-port="1" to-layer="3325" to-port="0"/>
		<edge from-layer="3323" from-port="1" to-layer="3327" to-port="0"/>
		<edge from-layer="3325" from-port="1" to-layer="3327" to-port="1"/>
		<edge from-layer="3326" from-port="1" to-layer="3327" to-port="2"/>
		<edge from-layer="3327" from-port="3" to-layer="3330" to-port="0"/>
		<edge from-layer="3328" from-port="1" to-layer="3330" to-port="1"/>
		<edge from-layer="3329" from-port="1" to-layer="3330" to-port="2"/>
		<edge from-layer="3331" from-port="1" to-layer="3332" to-port="0"/>
		<edge from-layer="3332" from-port="1" to-layer="3337" to-port="0"/>
		<edge from-layer="3333" from-port="1" to-layer="3337" to-port="1"/>
		<edge from-layer="3334" from-port="1" to-layer="3337" to-port="2"/>
		<edge from-layer="3335" from-port="1" to-layer="3337" to-port="3"/>
		<edge from-layer="3336" from-port="1" to-layer="3337" to-port="4"/>
		<edge from-layer="2466" from-port="5" to-layer="3338" to-port="0"/>
		<edge from-layer="3337" from-port="5" to-layer="3338" to-port="1"/>
		<edge from-layer="3338" from-port="2" to-layer="3340" to-port="0"/>
		<edge from-layer="3339" from-port="1" to-layer="3340" to-port="1"/>
		<edge from-layer="3340" from-port="2" to-layer="3345" to-port="0"/>
		<edge from-layer="3341" from-port="1" to-layer="3345" to-port="1"/>
		<edge from-layer="3342" from-port="1" to-layer="3345" to-port="2"/>
		<edge from-layer="3343" from-port="1" to-layer="3345" to-port="3"/>
		<edge from-layer="3344" from-port="1" to-layer="3345" to-port="4"/>
		<edge from-layer="3345" from-port="5" to-layer="3346" to-port="0"/>
		<edge from-layer="3346" from-port="1" to-layer="3348" to-port="0"/>
		<edge from-layer="3347" from-port="1" to-layer="3348" to-port="1"/>
		<edge from-layer="3348" from-port="2" to-layer="3350" to-port="0"/>
		<edge from-layer="3349" from-port="1" to-layer="3350" to-port="1"/>
		<edge from-layer="3350" from-port="2" to-layer="3351" to-port="0"/>
		<edge from-layer="3351" from-port="1" to-layer="3356" to-port="0"/>
		<edge from-layer="3352" from-port="1" to-layer="3356" to-port="1"/>
		<edge from-layer="3353" from-port="1" to-layer="3356" to-port="2"/>
		<edge from-layer="3354" from-port="1" to-layer="3356" to-port="3"/>
		<edge from-layer="3355" from-port="1" to-layer="3356" to-port="4"/>
		<edge from-layer="3357" from-port="1" to-layer="3358" to-port="0"/>
		<edge from-layer="3358" from-port="1" to-layer="3363" to-port="0"/>
		<edge from-layer="3359" from-port="1" to-layer="3363" to-port="1"/>
		<edge from-layer="3360" from-port="1" to-layer="3363" to-port="2"/>
		<edge from-layer="3361" from-port="1" to-layer="3363" to-port="3"/>
		<edge from-layer="3362" from-port="1" to-layer="3363" to-port="4"/>
		<edge from-layer="3356" from-port="5" to-layer="3364" to-port="0"/>
		<edge from-layer="3363" from-port="5" to-layer="3364" to-port="1"/>
		<edge from-layer="3364" from-port="2" to-layer="3366" to-port="0"/>
		<edge from-layer="3365" from-port="1" to-layer="3366" to-port="1"/>
		<edge from-layer="3366" from-port="2" to-layer="3371" to-port="0"/>
		<edge from-layer="3367" from-port="1" to-layer="3371" to-port="1"/>
		<edge from-layer="3368" from-port="1" to-layer="3371" to-port="2"/>
		<edge from-layer="3369" from-port="1" to-layer="3371" to-port="3"/>
		<edge from-layer="3370" from-port="1" to-layer="3371" to-port="4"/>
		<edge from-layer="3371" from-port="5" to-layer="3372" to-port="0"/>
		<edge from-layer="3372" from-port="1" to-layer="3374" to-port="0"/>
		<edge from-layer="3373" from-port="1" to-layer="3374" to-port="1"/>
		<edge from-layer="3374" from-port="2" to-layer="3376" to-port="0"/>
		<edge from-layer="3375" from-port="1" to-layer="3376" to-port="1"/>
		<edge from-layer="3376" from-port="2" to-layer="3377" to-port="0"/>
		<edge from-layer="3377" from-port="1" to-layer="3382" to-port="0"/>
		<edge from-layer="3378" from-port="1" to-layer="3382" to-port="1"/>
		<edge from-layer="3379" from-port="1" to-layer="3382" to-port="2"/>
		<edge from-layer="3380" from-port="1" to-layer="3382" to-port="3"/>
		<edge from-layer="3381" from-port="1" to-layer="3382" to-port="4"/>
		<edge from-layer="3383" from-port="1" to-layer="3384" to-port="0"/>
		<edge from-layer="3384" from-port="1" to-layer="3389" to-port="0"/>
		<edge from-layer="3385" from-port="1" to-layer="3389" to-port="1"/>
		<edge from-layer="3386" from-port="1" to-layer="3389" to-port="2"/>
		<edge from-layer="3387" from-port="1" to-layer="3389" to-port="3"/>
		<edge from-layer="3388" from-port="1" to-layer="3389" to-port="4"/>
		<edge from-layer="3382" from-port="5" to-layer="3390" to-port="0"/>
		<edge from-layer="3389" from-port="5" to-layer="3390" to-port="1"/>
		<edge from-layer="3390" from-port="2" to-layer="3392" to-port="0"/>
		<edge from-layer="3391" from-port="1" to-layer="3392" to-port="1"/>
		<edge from-layer="3392" from-port="2" to-layer="3397" to-port="0"/>
		<edge from-layer="3393" from-port="1" to-layer="3397" to-port="1"/>
		<edge from-layer="3394" from-port="1" to-layer="3397" to-port="2"/>
		<edge from-layer="3395" from-port="1" to-layer="3397" to-port="3"/>
		<edge from-layer="3396" from-port="1" to-layer="3397" to-port="4"/>
		<edge from-layer="3397" from-port="5" to-layer="3398" to-port="0"/>
		<edge from-layer="3398" from-port="1" to-layer="3400" to-port="0"/>
		<edge from-layer="3399" from-port="1" to-layer="3400" to-port="1"/>
		<edge from-layer="3400" from-port="2" to-layer="3402" to-port="0"/>
		<edge from-layer="3401" from-port="1" to-layer="3402" to-port="1"/>
		<edge from-layer="3402" from-port="2" to-layer="3403" to-port="0"/>
		<edge from-layer="3403" from-port="1" to-layer="3408" to-port="0"/>
		<edge from-layer="3404" from-port="1" to-layer="3408" to-port="1"/>
		<edge from-layer="3405" from-port="1" to-layer="3408" to-port="2"/>
		<edge from-layer="3406" from-port="1" to-layer="3408" to-port="3"/>
		<edge from-layer="3407" from-port="1" to-layer="3408" to-port="4"/>
		<edge from-layer="3409" from-port="1" to-layer="3410" to-port="0"/>
		<edge from-layer="3410" from-port="1" to-layer="3415" to-port="0"/>
		<edge from-layer="3411" from-port="1" to-layer="3415" to-port="1"/>
		<edge from-layer="3412" from-port="1" to-layer="3415" to-port="2"/>
		<edge from-layer="3413" from-port="1" to-layer="3415" to-port="3"/>
		<edge from-layer="3414" from-port="1" to-layer="3415" to-port="4"/>
		<edge from-layer="3408" from-port="5" to-layer="3416" to-port="0"/>
		<edge from-layer="3415" from-port="5" to-layer="3416" to-port="1"/>
		<edge from-layer="3416" from-port="2" to-layer="3418" to-port="0"/>
		<edge from-layer="3417" from-port="1" to-layer="3418" to-port="1"/>
		<edge from-layer="3418" from-port="2" to-layer="3423" to-port="0"/>
		<edge from-layer="3419" from-port="1" to-layer="3423" to-port="1"/>
		<edge from-layer="3420" from-port="1" to-layer="3423" to-port="2"/>
		<edge from-layer="3421" from-port="1" to-layer="3423" to-port="3"/>
		<edge from-layer="3422" from-port="1" to-layer="3423" to-port="4"/>
		<edge from-layer="3423" from-port="5" to-layer="3424" to-port="0"/>
		<edge from-layer="3424" from-port="1" to-layer="3426" to-port="0"/>
		<edge from-layer="3425" from-port="1" to-layer="3426" to-port="1"/>
		<edge from-layer="3426" from-port="2" to-layer="3428" to-port="0"/>
		<edge from-layer="3427" from-port="1" to-layer="3428" to-port="1"/>
		<edge from-layer="3428" from-port="2" to-layer="3429" to-port="0"/>
		<edge from-layer="3429" from-port="1" to-layer="3434" to-port="0"/>
		<edge from-layer="3430" from-port="1" to-layer="3434" to-port="1"/>
		<edge from-layer="3431" from-port="1" to-layer="3434" to-port="2"/>
		<edge from-layer="3432" from-port="1" to-layer="3434" to-port="3"/>
		<edge from-layer="3433" from-port="1" to-layer="3434" to-port="4"/>
		<edge from-layer="3435" from-port="1" to-layer="3436" to-port="0"/>
		<edge from-layer="3436" from-port="1" to-layer="3441" to-port="0"/>
		<edge from-layer="3437" from-port="1" to-layer="3441" to-port="1"/>
		<edge from-layer="3438" from-port="1" to-layer="3441" to-port="2"/>
		<edge from-layer="3439" from-port="1" to-layer="3441" to-port="3"/>
		<edge from-layer="3440" from-port="1" to-layer="3441" to-port="4"/>
		<edge from-layer="3434" from-port="5" to-layer="3442" to-port="0"/>
		<edge from-layer="3441" from-port="5" to-layer="3442" to-port="1"/>
		<edge from-layer="3442" from-port="2" to-layer="3444" to-port="0"/>
		<edge from-layer="3443" from-port="1" to-layer="3444" to-port="1"/>
		<edge from-layer="3444" from-port="2" to-layer="3445" to-port="0"/>
		<edge from-layer="3445" from-port="1" to-layer="3448" to-port="0"/>
		<edge from-layer="3446" from-port="1" to-layer="3448" to-port="1"/>
		<edge from-layer="3447" from-port="1" to-layer="3448" to-port="2"/>
		<edge from-layer="3448" from-port="3" to-layer="3450" to-port="0"/>
		<edge from-layer="3449" from-port="1" to-layer="3450" to-port="1"/>
		<edge from-layer="3450" from-port="2" to-layer="3452" to-port="0"/>
		<edge from-layer="3451" from-port="1" to-layer="3452" to-port="1"/>
		<edge from-layer="3324" from-port="1" to-layer="3453" to-port="0"/>
		<edge from-layer="3452" from-port="2" to-layer="3455" to-port="0"/>
		<edge from-layer="3453" from-port="1" to-layer="3455" to-port="1"/>
		<edge from-layer="3454" from-port="1" to-layer="3455" to-port="2"/>
		<edge from-layer="3455" from-port="3" to-layer="3458" to-port="0"/>
		<edge from-layer="3456" from-port="1" to-layer="3458" to-port="1"/>
		<edge from-layer="3457" from-port="1" to-layer="3458" to-port="2"/>
		<edge from-layer="3330" from-port="3" to-layer="3459" to-port="0"/>
		<edge from-layer="3458" from-port="3" to-layer="3459" to-port="1"/>
		<edge from-layer="3459" from-port="2" to-layer="3460" to-port="0"/>
		<edge from-layer="3460" from-port="1" to-layer="3462" to-port="0"/>
		<edge from-layer="3461" from-port="1" to-layer="3462" to-port="1"/>
		<edge from-layer="3327" from-port="3" to-layer="3465" to-port="0"/>
		<edge from-layer="3463" from-port="1" to-layer="3465" to-port="1"/>
		<edge from-layer="3464" from-port="1" to-layer="3465" to-port="2"/>
		<edge from-layer="3455" from-port="3" to-layer="3468" to-port="0"/>
		<edge from-layer="3466" from-port="1" to-layer="3468" to-port="1"/>
		<edge from-layer="3467" from-port="1" to-layer="3468" to-port="2"/>
		<edge from-layer="3465" from-port="3" to-layer="3469" to-port="0"/>
		<edge from-layer="3468" from-port="3" to-layer="3469" to-port="1"/>
		<edge from-layer="3469" from-port="2" to-layer="3470" to-port="0"/>
		<edge from-layer="3470" from-port="1" to-layer="3472" to-port="0"/>
		<edge from-layer="3471" from-port="1" to-layer="3472" to-port="1"/>
		<edge from-layer="3327" from-port="3" to-layer="3475" to-port="0"/>
		<edge from-layer="3473" from-port="1" to-layer="3475" to-port="1"/>
		<edge from-layer="3474" from-port="1" to-layer="3475" to-port="2"/>
		<edge from-layer="3455" from-port="3" to-layer="3478" to-port="0"/>
		<edge from-layer="3476" from-port="1" to-layer="3478" to-port="1"/>
		<edge from-layer="3477" from-port="1" to-layer="3478" to-port="2"/>
		<edge from-layer="3475" from-port="3" to-layer="3479" to-port="0"/>
		<edge from-layer="3478" from-port="3" to-layer="3479" to-port="1"/>
		<edge from-layer="3479" from-port="2" to-layer="3480" to-port="0"/>
		<edge from-layer="3480" from-port="1" to-layer="3482" to-port="0"/>
		<edge from-layer="3481" from-port="1" to-layer="3482" to-port="1"/>
		<edge from-layer="3327" from-port="3" to-layer="3485" to-port="0"/>
		<edge from-layer="3483" from-port="1" to-layer="3485" to-port="1"/>
		<edge from-layer="3484" from-port="1" to-layer="3485" to-port="2"/>
		<edge from-layer="3455" from-port="3" to-layer="3488" to-port="0"/>
		<edge from-layer="3486" from-port="1" to-layer="3488" to-port="1"/>
		<edge from-layer="3487" from-port="1" to-layer="3488" to-port="2"/>
		<edge from-layer="3485" from-port="3" to-layer="3489" to-port="0"/>
		<edge from-layer="3488" from-port="3" to-layer="3489" to-port="1"/>
		<edge from-layer="3489" from-port="2" to-layer="3490" to-port="0"/>
		<edge from-layer="3490" from-port="1" to-layer="3492" to-port="0"/>
		<edge from-layer="3491" from-port="1" to-layer="3492" to-port="1"/>
		<edge from-layer="3462" from-port="2" to-layer="3493" to-port="0"/>
		<edge from-layer="3472" from-port="2" to-layer="3493" to-port="1"/>
		<edge from-layer="3482" from-port="2" to-layer="3493" to-port="2"/>
		<edge from-layer="3492" from-port="2" to-layer="3493" to-port="3"/>
		<edge from-layer="2809" from-port="4" to-layer="3494" to-port="0"/>
		<edge from-layer="2980" from-port="4" to-layer="3494" to-port="1"/>
		<edge from-layer="3151" from-port="4" to-layer="3494" to-port="2"/>
		<edge from-layer="3322" from-port="4" to-layer="3494" to-port="3"/>
		<edge from-layer="3493" from-port="4" to-layer="3494" to-port="4"/>
		<edge from-layer="3494" from-port="5" to-layer="3496" to-port="0"/>
		<edge from-layer="3495" from-port="1" to-layer="3496" to-port="1"/>
		<edge from-layer="3496" from-port="2" to-layer="3498" to-port="0"/>
		<edge from-layer="3497" from-port="1" to-layer="3498" to-port="1"/>
		<edge from-layer="2640" from-port="1" to-layer="3499" to-port="0"/>
		<edge from-layer="1834" from-port="1" to-layer="3501" to-port="0"/>
		<edge from-layer="3499" from-port="1" to-layer="3501" to-port="1"/>
		<edge from-layer="3500" from-port="1" to-layer="3501" to-port="2"/>
		<edge from-layer="2811" from-port="1" to-layer="3502" to-port="0"/>
		<edge from-layer="2021" from-port="1" to-layer="3504" to-port="0"/>
		<edge from-layer="3502" from-port="1" to-layer="3504" to-port="1"/>
		<edge from-layer="3503" from-port="1" to-layer="3504" to-port="2"/>
		<edge from-layer="2982" from-port="1" to-layer="3505" to-port="0"/>
		<edge from-layer="2208" from-port="1" to-layer="3507" to-port="0"/>
		<edge from-layer="3505" from-port="1" to-layer="3507" to-port="1"/>
		<edge from-layer="3506" from-port="1" to-layer="3507" to-port="2"/>
		<edge from-layer="3153" from-port="1" to-layer="3508" to-port="0"/>
		<edge from-layer="2395" from-port="1" to-layer="3510" to-port="0"/>
		<edge from-layer="3508" from-port="1" to-layer="3510" to-port="1"/>
		<edge from-layer="3509" from-port="1" to-layer="3510" to-port="2"/>
		<edge from-layer="3324" from-port="1" to-layer="3511" to-port="0"/>
		<edge from-layer="2588" from-port="1" to-layer="3513" to-port="0"/>
		<edge from-layer="3511" from-port="1" to-layer="3513" to-port="1"/>
		<edge from-layer="3512" from-port="1" to-layer="3513" to-port="2"/>
		<edge from-layer="3501" from-port="3" to-layer="3514" to-port="0"/>
		<edge from-layer="3504" from-port="3" to-layer="3514" to-port="1"/>
		<edge from-layer="3507" from-port="3" to-layer="3514" to-port="2"/>
		<edge from-layer="3510" from-port="3" to-layer="3514" to-port="3"/>
		<edge from-layer="3513" from-port="3" to-layer="3514" to-port="4"/>
		<edge from-layer="2640" from-port="1" to-layer="3515" to-port="0"/>
		<edge from-layer="1852" from-port="1" to-layer="3517" to-port="0"/>
		<edge from-layer="3515" from-port="1" to-layer="3517" to-port="1"/>
		<edge from-layer="3516" from-port="1" to-layer="3517" to-port="2"/>
		<edge from-layer="2811" from-port="1" to-layer="3518" to-port="0"/>
		<edge from-layer="2039" from-port="1" to-layer="3520" to-port="0"/>
		<edge from-layer="3518" from-port="1" to-layer="3520" to-port="1"/>
		<edge from-layer="3519" from-port="1" to-layer="3520" to-port="2"/>
		<edge from-layer="2982" from-port="1" to-layer="3521" to-port="0"/>
		<edge from-layer="2226" from-port="1" to-layer="3523" to-port="0"/>
		<edge from-layer="3521" from-port="1" to-layer="3523" to-port="1"/>
		<edge from-layer="3522" from-port="1" to-layer="3523" to-port="2"/>
		<edge from-layer="3153" from-port="1" to-layer="3524" to-port="0"/>
		<edge from-layer="2413" from-port="1" to-layer="3526" to-port="0"/>
		<edge from-layer="3524" from-port="1" to-layer="3526" to-port="1"/>
		<edge from-layer="3525" from-port="1" to-layer="3526" to-port="2"/>
		<edge from-layer="3324" from-port="1" to-layer="3527" to-port="0"/>
		<edge from-layer="2606" from-port="1" to-layer="3529" to-port="0"/>
		<edge from-layer="3527" from-port="1" to-layer="3529" to-port="1"/>
		<edge from-layer="3528" from-port="1" to-layer="3529" to-port="2"/>
		<edge from-layer="3517" from-port="3" to-layer="3530" to-port="0"/>
		<edge from-layer="3520" from-port="3" to-layer="3530" to-port="1"/>
		<edge from-layer="3523" from-port="3" to-layer="3530" to-port="2"/>
		<edge from-layer="3526" from-port="3" to-layer="3530" to-port="3"/>
		<edge from-layer="3529" from-port="3" to-layer="3530" to-port="4"/>
		<edge from-layer="3530" from-port="5" to-layer="3531" to-port="0"/>
		<edge from-layer="3531" from-port="1" to-layer="3534" to-port="0"/>
		<edge from-layer="3532" from-port="1" to-layer="3534" to-port="1"/>
		<edge from-layer="3533" from-port="1" to-layer="3534" to-port="2"/>
		<edge from-layer="3534" from-port="3" to-layer="3536" to-port="0"/>
		<edge from-layer="3535" from-port="1" to-layer="3536" to-port="1"/>
		<edge from-layer="3536" from-port="2" to-layer="3538" to-port="0"/>
		<edge from-layer="3537" from-port="1" to-layer="3538" to-port="1"/>
		<edge from-layer="3530" from-port="5" to-layer="3539" to-port="0"/>
		<edge from-layer="3538" from-port="2" to-layer="3539" to-port="1"/>
		<edge from-layer="3514" from-port="5" to-layer="3540" to-port="0"/>
		<edge from-layer="3539" from-port="2" to-layer="3541" to-port="0"/>
		<edge from-layer="3540" from-port="1" to-layer="3541" to-port="1"/>
		<edge from-layer="3514" from-port="5" to-layer="3542" to-port="0"/>
		<edge from-layer="3541" from-port="2" to-layer="3542" to-port="1"/>
		<edge from-layer="3542" from-port="2" to-layer="3544" to-port="0"/>
		<edge from-layer="3543" from-port="1" to-layer="3544" to-port="1"/>
		<edge from-layer="3544" from-port="2" to-layer="3546" to-port="0"/>
		<edge from-layer="3545" from-port="1" to-layer="3546" to-port="1"/>
		<edge from-layer="3498" from-port="2" to-layer="3550" to-port="0"/>
		<edge from-layer="3546" from-port="2" to-layer="3550" to-port="1"/>
		<edge from-layer="3547" from-port="1" to-layer="3550" to-port="2"/>
		<edge from-layer="3548" from-port="1" to-layer="3550" to-port="3"/>
		<edge from-layer="3549" from-port="1" to-layer="3550" to-port="4"/>
		<edge from-layer="3550" from-port="5" to-layer="3553" to-port="0"/>
		<edge from-layer="3551" from-port="1" to-layer="3553" to-port="1"/>
		<edge from-layer="3552" from-port="1" to-layer="3553" to-port="2"/>
		<edge from-layer="3553" from-port="4" to-layer="3554" to-port="0"/>
		<edge from-layer="3498" from-port="2" to-layer="3556" to-port="0"/>
		<edge from-layer="3555" from-port="1" to-layer="3556" to-port="1"/>
		<edge from-layer="3498" from-port="2" to-layer="3557" to-port="0"/>
		<edge from-layer="3557" from-port="1" to-layer="3561" to-port="0"/>
		<edge from-layer="3558" from-port="1" to-layer="3561" to-port="1"/>
		<edge from-layer="3559" from-port="1" to-layer="3561" to-port="2"/>
		<edge from-layer="3560" from-port="1" to-layer="3561" to-port="3"/>
		<edge from-layer="3561" from-port="4" to-layer="3563" to-port="0"/>
		<edge from-layer="3562" from-port="1" to-layer="3563" to-port="1"/>
		<edge from-layer="3553" from-port="3" to-layer="3564" to-port="0"/>
		<edge from-layer="3563" from-port="2" to-layer="3564" to-port="1"/>
		<edge from-layer="3564" from-port="2" to-layer="3565" to-port="0"/>
		<edge from-layer="3553" from-port="5" to-layer="3565" to-port="1"/>
		<edge from-layer="3565" from-port="2" to-layer="3566" to-port="0"/>
		<edge from-layer="3556" from-port="2" to-layer="3568" to-port="0"/>
		<edge from-layer="3566" from-port="1" to-layer="3568" to-port="1"/>
		<edge from-layer="3567" from-port="1" to-layer="3568" to-port="2"/>
		<edge from-layer="3568" from-port="3" to-layer="3570" to-port="0"/>
		<edge from-layer="3569" from-port="1" to-layer="3570" to-port="1"/>
		<edge from-layer="3546" from-port="2" to-layer="3572" to-port="0"/>
		<edge from-layer="3571" from-port="1" to-layer="3572" to-port="1"/>
		<edge from-layer="3565" from-port="2" to-layer="3573" to-port="0"/>
		<edge from-layer="3572" from-port="2" to-layer="3575" to-port="0"/>
		<edge from-layer="3573" from-port="1" to-layer="3575" to-port="1"/>
		<edge from-layer="3574" from-port="1" to-layer="3575" to-port="2"/>
		<edge from-layer="3575" from-port="3" to-layer="3577" to-port="0"/>
		<edge from-layer="3576" from-port="1" to-layer="3577" to-port="1"/>
		<edge from-layer="3553" from-port="3" to-layer="3578" to-port="0"/>
		<edge from-layer="3578" from-port="1" to-layer="3580" to-port="0"/>
		<edge from-layer="3579" from-port="1" to-layer="3580" to-port="1"/>
		<edge from-layer="3570" from-port="2" to-layer="3581" to-port="0"/>
		<edge from-layer="3577" from-port="2" to-layer="3581" to-port="1"/>
		<edge from-layer="3580" from-port="2" to-layer="3581" to-port="2"/>
		<edge from-layer="3581" from-port="3" to-layer="3584" to-port="0"/>
		<edge from-layer="3582" from-port="1" to-layer="3584" to-port="1"/>
		<edge from-layer="3583" from-port="1" to-layer="3584" to-port="2"/>
		<edge from-layer="3584" from-port="3" to-layer="3586" to-port="0"/>
		<edge from-layer="3585" from-port="1" to-layer="3586" to-port="1"/>
		<edge from-layer="3586" from-port="2" to-layer="3588" to-port="0"/>
		<edge from-layer="3588" from-port="1" to-layer="3591" to-port="0"/>
		<edge from-layer="3589" from-port="1" to-layer="3591" to-port="1"/>
		<edge from-layer="3590" from-port="1" to-layer="3591" to-port="2"/>
		<edge from-layer="3591" from-port="3" to-layer="3593" to-port="0"/>
		<edge from-layer="3592" from-port="1" to-layer="3593" to-port="1"/>
		<edge from-layer="3587" from-port="1" to-layer="3594" to-port="0"/>
		<edge from-layer="3593" from-port="2" to-layer="3594" to-port="1"/>
		<edge from-layer="3594" from-port="2" to-layer="3595" to-port="0"/>
		<edge from-layer="3595" from-port="1" to-layer="3597" to-port="0"/>
		<edge from-layer="3597" from-port="1" to-layer="3598" to-port="0"/>
		<edge from-layer="3598" from-port="1" to-layer="3600" to-port="0"/>
		<edge from-layer="3599" from-port="1" to-layer="3600" to-port="1"/>
		<edge from-layer="3596" from-port="1" to-layer="3602" to-port="0"/>
		<edge from-layer="3600" from-port="2" to-layer="3602" to-port="1"/>
		<edge from-layer="3601" from-port="1" to-layer="3602" to-port="2"/>
		<edge from-layer="3595" from-port="1" to-layer="3603" to-port="0"/>
		<edge from-layer="3602" from-port="3" to-layer="3603" to-port="1"/>
		<edge from-layer="3603" from-port="2" to-layer="3604" to-port="0"/>
		<edge from-layer="3604" from-port="1" to-layer="3606" to-port="0"/>
		<edge from-layer="3605" from-port="1" to-layer="3606" to-port="1"/>
		<edge from-layer="3606" from-port="2" to-layer="3608" to-port="0"/>
		<edge from-layer="3607" from-port="1" to-layer="3608" to-port="1"/>
		<edge from-layer="3608" from-port="2" to-layer="3610" to-port="0"/>
		<edge from-layer="3609" from-port="1" to-layer="3610" to-port="1"/>
		<edge from-layer="3610" from-port="2" to-layer="3611" to-port="0"/>
		<edge from-layer="3586" from-port="2" to-layer="3612" to-port="0"/>
		<edge from-layer="3611" from-port="1" to-layer="3612" to-port="1"/>
		<edge from-layer="3612" from-port="2" to-layer="3613" to-port="0"/>
		<edge from-layer="3612" from-port="3" to-layer="3614" to-port="0"/>
		<edge from-layer="3614" from-port="1" to-layer="3615" to-port="0"/>
		<edge from-layer="3581" from-port="3" to-layer="3617" to-port="0"/>
		<edge from-layer="3615" from-port="1" to-layer="3617" to-port="1"/>
		<edge from-layer="3616" from-port="1" to-layer="3617" to-port="2"/>
		<edge from-layer="3617" from-port="3" to-layer="3621" to-port="0"/>
		<edge from-layer="3618" from-port="1" to-layer="3621" to-port="1"/>
		<edge from-layer="3619" from-port="1" to-layer="3621" to-port="2"/>
		<edge from-layer="3620" from-port="1" to-layer="3621" to-port="3"/>
		<edge from-layer="3621" from-port="4" to-layer="3622" to-port="0"/>
	</edges>
	<meta_data>
		<MO_version value="unknown version"/>
		<cli_parameters>
			<caffe_parser_path value="DIR"/>
			<data_type value="FP16"/>
			<disable_nhwc_to_nchw value="False"/>
			<disable_omitting_optional value="False"/>
			<disable_resnet_optimization value="False"/>
			<disable_weights_compression value="False"/>
			<enable_concat_optimization value="False"/>
			<enable_flattening_nested_params value="False"/>
			<enable_ssd_gluoncv value="False"/>
			<extensions value="DIR"/>
			<framework value="onnx"/>
			<freeze_placeholder_with_value value="{}"/>
			<generate_deprecated_IR_V7 value="False"/>
			<input value="image"/>
			<input_model value="DIR/person-detection-asl-0001.onnx"/>
			<input_model_is_text value="False"/>
			<input_shape value="[1,3,320,320]"/>
			<k value="DIR/CustomLayersMapping.xml"/>
			<keep_shape_ops value="True"/>
			<legacy_mxnet_model value="False"/>
			<log_level value="ERROR"/>
			<mean_scale_values value="{'image': {'mean': array([123.675, 116.28 , 103.53 ]), 'scale': array([58.395, 57.12 , 57.375])}}"/>
			<mean_values value="image[123.675,116.28,103.53]"/>
			<model_name value="person-detection-asl-0001"/>
			<output value="['boxes']"/>
			<output_dir value="DIR"/>
			<placeholder_data_types value="{}"/>
			<placeholder_shapes value="{'image': array([  1,   3, 320, 320])}"/>
			<progress value="False"/>
			<remove_memory value="False"/>
			<remove_output_softmax value="False"/>
			<reverse_input_channels value="True"/>
			<save_params_from_nd value="False"/>
			<scale_values value="image[58.395,57.12,57.375]"/>
			<silent value="False"/>
			<static_shape value="False"/>
			<stream_output value="False"/>
			<unset unset_cli_parameters="batch, counts, disable_fusing, disable_gfusing, finegrain_fusing, input_checkpoint, input_meta_graph, input_proto, input_symbol, mean_file, mean_file_offsets, move_to_preprocess, nd_prefix_name, pretrained_model_name, saved_model_dir, saved_model_tags, scale, tensorboard_logdir, tensorflow_custom_layer_libraries, tensorflow_custom_operations_config_update, tensorflow_object_detection_api_pipeline_config, tensorflow_use_custom_operations_config, transformations_config"/>
		</cli_parameters>
	</meta_data>
	<quantization_parameters>
		<config>{
		'compression': {
			'algorithms': [
				{
					'name': 'DefaultQuantization',
					'params': {
						'preset': 'accuracy',
						'stat_subset_size': 300,
						'use_fast_bias': false
					}
				}
			],
			'dump_intermediate_model': true,
			'target_device': 'CPU'
		},
		'engine': {
			'models': [
				{
					'name': 'person-detection-asl-0001',
					'launchers': [
						{
							'framework': 'dlsdk',
							'adapter': {
								'type': 'class_agnostic_detection',
								'scale': 0.003125
							},
							'device': 'CPU'
						}
					],
					'datasets': [
						{
							'name': 'mscoco_person_detection',
							'data_source': 'PATH',
							'annotation_conversion': {
								'converter': 'mscoco_detection',
								'annotation_file': 'PATH',
								'has_background': true,
								'sort_annotations': true,
								'use_full_label_map': true
							},
							'annotation': 'mscoco_person_detection.pickle',
							'dataset_meta': 'mscoco_person_detection.json',
							'preprocessing': [
								{
									'type': 'resize',
									'size': 320
								}
							],
							'postprocessing': [
								{
									'type': 'resize_prediction_boxes'
								},
								{
									'type': 'filter',
									'apply_to': 'annotation',
									'height_range': 100,
									'aspect_ratio': '0.666, 5',
									'is_empty': true,
									'min_visibility': 'partially occluded'
								},
								{
									'type': 'filter',
									'apply_to': 'prediction',
									'height_range': 100,
									'is_empty': true,
									'aspect_ratio': '0.666, 5'
								}
							],
							'metrics': [
								{
									'type': 'map',
									'ignore_difficult': true,
									'include_boundaries': true,
									'allow_multiple_matches_per_ignored': false,
									'distinct_conf': false
								}
							]
						}
					]
				}
			],
			'stat_requests_number': null,
			'eval_requests_number': null,
			'type': 'accuracy_checker'
		}
	}</config>
		<version value="1.0"/>
		<cli_params value="{'evaluate': False, 'output_dir': 'PATH', 'direct_dump': True, 'log_level': 'INFO', 'pbar': False, 'stream_output': False, 'keep_uncompressed_weights': False}"/>
	</quantization_parameters>
</net>
